model/lit_fashion_mnist_model_2024-08-10_17-20-36.pth (torch, 440624 bytes, 6 tensors)

fc1.weight f4 [128, 784]
000000 cf 8b c5 3c 92 5e a7 3c 11 e1 04 3d 29 ec 90 3c
       0.024114517 0.020430837 0.032441203 0.017690735
000010 90 83 02 3d e1 7b d9 bc 34 5b 37 bc 53 44 80 bd
       0.03186375 -0.026548328 -0.011191178 -0.06263032
000020 ca 0a ae 3b dc 43 cb 3c 00 8a ef 3d 20 d0 09 3e
       0.0053113448 0.024812631 0.11696243 0.134583
000030 fd e9 2d 3d dc 11 c6 3c e5 ac 2e 3d 49 8e 50 bd
       0.042459477 0.024178438 0.042645354 -0.050916944
000040 2b c3 0b 3d fb 50 9f 3d 91 8b 07 bc 11 3f b1 3c
       0.034121674 0.07779118 -0.008273021 0.021636518
000050 b9 ea 55 bd 1f 65 b3 bc a4 73 e2 bc be af 8f bc
       -0.052225802 -0.021898804 -0.027643032 -0.017539855
000060 17 58 f6 bc cc d9 11 3d 20 84 1b 37 57 ae 30 3b
       -0.030071301 0.035608098 9.269483e-06 0.0026959383
000070 ae af 46 3d 75 93 0e 3b a8 00 b7 3c 78 8e d1 bc
       0.048507385 0.0021755372 0.02233918 -0.02558063
000080 0b 69 3f bd 9b 24 32 bd 32 10 81 bd 9f 6d 1a 3d
       -0.046731036 -0.04349194 -0.06301917 0.0377022
000090 39 a2 6e 3d 04 e5 ef 3d 93 15 36 3e 50 13 e7 3c
       0.058260176 0.11713603 0.17781667 0.028207451
0000a0 be 0a dd 3b e2 53 a5 bc a1 1c cf 3c ff 8e d0 bc
       0.0067456653 -0.0201816 0.025282206 -0.02545881
0000b0 15 b4 f1 3c cc f8 0d 3e 69 f4 33 3d ad 15 ae 3d
       0.029504815 0.1386444 0.04393426 0.08500228
0000c0 44 46 03 bd c9 ab 97 bd de f3 7b bd 79 95 df bd
       -0.032049432 -0.07405812 -0.061511867 -0.109171815
0000d0 8d 94 41 bd 1b f3 80 3c 06 ec 9b 3c b7 c5 8a 3b
       -0.04726081 0.015740922 0.019033443 0.004234995
0000e0 ea 30 00 3d df 68 33 bc 01 96 05 3d ec 08 de bc
       0.031296648 -0.010950296 0.032613758 -0.027103864
0000f0 39 63 11 bd 57 82 ce bc 83 4b fa 3d 6c d9 2b 3e
       -0.035495017 -0.025208635 0.12221434 0.16782159
000100 d2 4a 68 3d f5 e7 2f 3e 9d ae d7 3d fc cd 63 bd
       0.05671198 0.17178328 0.10531352 -0.055616364
000110 63 c7 a3 3c 96 ef 28 be 0a 90 f2 bd 56 69 9b bd
       0.019992536 -0.16497645 -0.118438795 -0.075884506
000120 bd 5f 9a bc d6 8a 58 bd 5e 47 16 3e 54 53 dc 3d
       -0.01884448 -0.05286678 0.14675662 0.10758081
000130 a8 7d f5 3d bc 92 a7 3d 4d 9a e9 3b 40 0f 32 bd
       0.11986858 0.08182284 0.00712899 -0.043471575
000140 27 a4 80 bd c1 4c 45 bd 93 cd ba 3c ad 82 c2 3c
       -0.062813096 -0.0481689 0.022803104 0.023743952
000150 55 3d 40 3d 2a 01 00 3d 71 be 0b 3d 17 af df bc
       0.04693349 0.03125111 0.034117166 -0.027305169
000160 71 6a 08 3d d1 7c 08 3d ef 7a 96 3d c8 0a b1 bc
       0.033304635 0.03332216 0.073476665 -0.021611586
000170 02 f7 16 3d e7 cf 90 3c 76 fe c5 bb 76 de be 3c
       0.03685666 0.01767726 -0.006042297 0.023299437
000180 70 63 21 bd d8 21 2c be 29 78 0e be 90 c7 a2 bd
       -0.03940147 -0.16809785 -0.13913025 -0.0794822
000190 7f e8 be bd e7 60 13 bb b2 c0 bc bc 78 2e f3 bd
       -0.09321689 -0.0022488178 -0.023041103 -0.118740976
0001a0 a8 26 99 3c 79 33 29 3c cf cd 9a 3d 85 d4 26 3d
       0.01869519 0.010327213 0.07558786 0.04073002
0001b0 7a c1 37 bd d5 91 6a bd 6a 7a 20 bc c5 7c 8a bc
       -0.044862248 -0.057267983 -0.009794811 -0.016905198
0001c0 a7 70 0d bc 98 8c 01 bc 18 0e ff bc 6c be ca 3c
       -0.008632815 -0.007907055 -0.03113465 0.024749003
0001d0 af c5 28 3d 3b a0 81 bc 12 d7 e8 3b 22 68 0a 3d
       0.04120415 -0.015823474 0.0071057165 0.033790715
0001e0 ad 60 6e bc cc f1 d0 3d ce 3c 57 3d f3 b4 56 3d
       -0.0145494165 0.10202369 0.052548222 0.05241866
0001f0 59 9e b5 bd 54 17 ae bd 44 b7 1b 3d e1 8e 97 bd
       -0.08868093 -0.08500543 0.038016573 -0.07400299
000200 c2 1e ca bd d6 c7 21 3d 8f 0c ce 3b 70 18 19 be
       -0.09869148 0.03949722 0.006288118 -0.14950728
000210 c6 ac fa bd cc 09 a6 bd 3c 48 f2 bc 1c 4b 9a bc
       -0.12239985 -0.08107337 -0.02957546 -0.018834643
000220 11 39 2b bd 45 86 b8 bd 67 c9 72 3c 12 47 8d 3c
       -0.04180247 -0.09009985 0.014818526 0.017245803
000230 b4 7e 0c 3c 57 52 79 3c c7 57 a3 bc 4c 83 35 3c
       0.00857513 0.015217385 -0.019939316 0.011078667
000240 33 f2 2a bc 25 b0 6b 3c 7d 19 09 bb 00 ec 88 3d
       -0.010433721 0.014385258 -0.0020919733 0.066856384
000250 a0 20 4d 3d 9c ff bd 3d d5 29 97 3d d4 96 a8 3d
       0.05007994 0.09277269 0.07381026 0.08231893
000260 ba f9 4e 3d b1 f0 88 bd c3 8a 16 3c 86 80 6d bd
       0.050531127 -0.06686533 0.009188357 -0.057983898
000270 ba 87 98 bc 8f 56 c3 3c 05 af a3 3d c6 de 19 bc
       -0.018619407 0.023844985 0.07992367 -0.009391492
000280 3a ce c8 bc 52 b3 8b 3d 5b 28 1c 3d 67 8a 13 3d
       -0.024512399 0.06821312 0.038124423 0.036020663
000290 e1 96 b2 bc 97 f0 83 bd 84 64 45 bd 06 02 e0 bb
       -0.02180046 -0.06442373 -0.048191562 -0.0068361787
0002a0 b1 7a 36 bc 15 ee c2 bc ac f5 6e bc 96 07 52 3c
       -0.01113765 -0.023795167 -0.01458494 0.012819191
0002b0 14 55 94 3d af fe 09 3d 9f 80 d5 3c 17 81 fb 3d
       0.0724279 0.03369015 0.026062308 0.12280481
0002c0 eb 0f bc ba b1 0c 88 bc 86 88 7b 3c b6 d6 f6 bc
       -0.0014348006 -0.016607614 0.015352374 -0.030131679
0002d0 1d 31 00 3d 23 29 b0 bd 90 a5 8c 3d 6d c2 ec bb
       0.031296838 -0.08601596 0.06867516 -0.007225326
0002e0 da ea 2b bd 06 c2 35 3d 04 0e 95 3b d5 3f aa bc
       -0.04197202 0.04437449 0.00454879 -0.02078239
0002f0 4b 77 8b 3d 2d 6c 14 3e e2 3b 1a 3d 58 06 b0 3d
       0.06809863 0.14494391 0.037654765 0.0859496
000300 2a 59 e3 3b 99 4c b0 bd f5 03 c3 bd dc 45 23 bd
       0.0069381194 -0.0860836 -0.09522239 -0.039861545
000310 44 4e ab bc 47 d4 07 bd 08 b1 06 3d 52 d3 fe 3b
       -0.020911343 -0.033161428 0.032883674 0.007776656
000320 f0 4b bc bb 63 71 dc ba f6 69 a9 3d 76 b0 de 3d
       -0.005746357 -0.001681846 0.082721636 0.10873501
000330 c7 57 a2 3d e3 38 c4 bb b2 64 4a bc 77 53 b6 bc
       0.079268984 -0.0059882267 -0.012353109 -0.022256596
000340 64 91 4a 3d b3 19 97 bd 5a 14 31 3e c4 e4 b3 3d
       0.04945506 -0.073779486 0.1729292 0.08783868
000350 1b 28 d6 bc c6 71 88 bd fe 8e 01 3d a5 0a 57 bd
       -0.02614217 -0.066623256 0.03163051 -0.052500386
000360 0e 81 df 3d fe e6 53 3e 4a 73 6c 3d 30 92 2b bc
       0.10913287 0.20693585 0.057727136 -0.010471866
000370 0a 33 1e bd ae 30 e9 bd 7a 32 f9 bd aa 9d 7c bc
       -0.038622893 -0.11386238 -0.12167831 -0.015418449
000380 16 17 fc 3c b8 0d e6 bb f2 eb ad 3c b1 a6 90 bc
       0.030772727 -0.0070206784 0.021230672 -0.01765761
000390 f7 6e 07 bb fa 8b 2b bd d9 67 f5 3c ad 9a a7 3d
       -0.0020665505 -0.04188154 0.029956745 0.08183799
0003a0 97 42 ac 3b 02 37 aa 3d e9 95 3c 3d a8 8b 00 bd
       0.0052569616 0.08311273 0.046041403 -0.031383187
0003b0 19 03 c3 3c 75 4d bb 3c c6 9e e7 3d 41 41 1c 3e
       0.023805188 0.022864083 0.113095805 0.15259267
0003c0 4e 9f b4 bc 5d a4 7a bc 70 6e 78 3b ea 39 bc 3c
       -0.022048619 -0.015297976 0.0037907623 0.022976834
0003d0 f8 14 74 3d 16 36 c6 3d 06 cf d0 bc 9d a7 48 bd
       0.05959031 0.09678285 -0.025489341 -0.048987973
0003e0 c8 02 3d be 03 8a c9 bd 86 0a b3 bd 5e 5c 19 bd
       -0.18458092 -0.09840777 -0.087422416 -0.037441604
0003f0 23 65 ab bc 19 e3 9a bc 7f f7 e9 bc f3 51 f4 bc
       -0.02092225 -0.018907117 -0.028560398 -0.029824233

fc1.bias f4 [128]
000000 18 b6 dc bc b8 88 94 3d 74 9e 72 bd a6 b9 29 bd
       -0.026942298 0.072526395 -0.059233144 -0.041436814
000010 52 e8 a8 3a 5d 42 49 bc 94 e1 3b bd 24 99 06 bd
       0.001288662 -0.012283889 -0.045869425 -0.03286089
000020 08 80 0e bc 8c 24 be bb ef de a3 bd f4 ae 90 bd
       -0.008697517 -0.0058026966 -0.080015056 -0.0706462
000030 53 48 4c bd 8f 73 5a bc c5 12 aa bd 15 93 50 bd
       -0.04987366 -0.013333215 -0.08304361 -0.05092152
000040 a8 8c 4a bd 0c d1 82 3c 6a 9f b2 bc 98 e0 5d 3b
       -0.049450547 0.015968822 -0.02180453 0.0033855792
000050 d0 0f 54 bc f2 a3 62 bd c9 95 84 bd 3e 34 5c bc
       -0.012943223 -0.05533213 -0.06473882 -0.01344019
000060 21 f0 1e bd 27 56 2b bd 3c f4 82 bc b4 6b 17 3d
       -0.038803224 -0.04183021 -0.0159856 0.036967948
000070 bb 19 cc bb bb cc 7b bd c4 da 7e bd a5 c4 fa 3c
       -0.0062286532 -0.061474543 -0.06222035 0.030611346
000080 fb b5 4c bc fa b2 9f bd 73 e7 73 3c cc cf bb bd
       -0.012494559 -0.07797809 0.014886725 -0.091704935
000090 72 a6 83 bc 00 dc 16 bd 9f 8e 51 3c 08 b0 39 bc
       -0.016070578 -0.036830902 0.012790351 -0.011333473
0000a0 86 9c 92 3d ef dd 22 bd e7 17 b1 bb 14 2d 84 bc
       0.07158761 -0.039762434 -0.0054044607 -0.016134776
0000b0 ec e5 1e 3c db ae 70 3c 9d ee 10 3d f7 24 8f 3a
       0.009698372 0.014690126 0.03538381 0.001092105
0000c0 fd 91 50 bd 71 a2 8a bc 85 c7 70 bc 87 59 85 bd
       -0.050920475 -0.016923161 -0.014696007 -0.065112166
0000d0 76 18 5d 3d ce 31 24 bd 6e f7 97 bc bc 68 17 bd
       0.053978406 -0.04008656 -0.0185506 -0.036965117
0000e0 1f 58 83 bd 3f f2 a4 3c ae f3 55 bd 60 7f 07 bd
       -0.06413292 0.020135043 -0.052234344 -0.03308046
0000f0 bb 22 24 bd 16 d1 c6 3c 71 d4 fe bc c0 60 e5 bc
       -0.040072184 0.024269622 -0.03110716 -0.028000236
000100 5b c9 c8 3c e5 f0 4b bd b6 fd 8a 3b 16 bb 04 bd
       0.024510076 -0.04979028 0.0042416705 -0.03240498
000110 1e bc 51 bd c1 30 d2 3c 8d b8 e5 bc 62 1a 53 bd
       -0.051204793 0.025658013 -0.028042102 -0.051538832
000120 c5 b0 14 bb a2 57 1b 3d aa 7c d8 bc 88 a3 2f bd
       -0.002268837 0.03792537 -0.026426632 -0.042880565
000130 d2 69 b9 bc df 64 fc bb 52 db fd bc 0b 3b 49 3a
       -0.022633467 -0.0077024545 -0.03098837 0.00076763396
000140 1c ac 10 3c c3 b6 fd bc 6f 5c 99 bb b3 43 a7 bd
       0.008830097 -0.030970937 -0.0046802084 -0.081672095
000150 6e 49 ae bd 69 21 3a bc db cb 8f 3b f2 32 e5 bc
       -0.08510099 -0.011360505 0.004388315 -0.027978394
000160 0f 30 19 3e 8c 0e 79 bd ae 56 14 bc ff ab 90 bd
       0.14959739 -0.06080489 -0.009053869 -0.07064056
000170 a1 dd 8f bd fc 3f 6f 3d a4 8a e1 ba de 73 1e bc
       -0.07024694 0.05841063 -0.0017207456 -0.00967118
000180 65 e6 18 bd dc 95 93 bd 5e c7 c0 bb 08 8d 20 bd
       -0.037329096 -0.07206318 -0.0058831414 -0.039196998
000190 e6 f1 c5 ba 30 9d a1 bd 9d df 0f bd 14 5e 22 bd
       -0.0015101999 -0.07891309 -0.035125364 -0.0396405
0001a0 6d 66 a9 3c 60 0e cb bc 48 54 9c bc 59 14 3a 3c
       0.020678723 -0.024787128 -0.019083157 0.01135739
0001b0 3e b9 06 3d d1 86 97 bc 00 43 07 3d c1 3c 57 bd
       0.032891504 -0.018496903 0.03302288 -0.052548174
0001c0 6c 67 7b bd 74 fd 03 3d f9 75 74 3d a6 9e 84 3d
       -0.061377928 0.032224134 0.05968282 0.06475572
0001d0 fa 5c ee 3a 04 52 b9 3c 8e 15 70 3c 6b 49 da bc
       0.0018185668 0.022622116 0.014653577 -0.026646337
0001e0 58 a7 10 3c f3 b7 5c bc e1 a7 87 bd 7c fa 83 bb
       0.00882896 -0.013471591 -0.06623817 -0.004027663
0001f0 4a ea 13 bd 13 91 39 3d c4 ba 42 bc 7b d3 20 bd
       -0.036112107 0.04530437 -0.011885349 -0.039264183

fc2.weight f4 [64, 128]
000000 36 c2 dd bd f7 4b 07 3e 06 7e ad 3d 38 cf 06 3c
       -0.108280584 0.13212572 0.08471303 0.008228116
000010 a1 e2 f4 bc 65 de 9e 3c 32 cd a2 bd 5b f9 c6 bd
       -0.029893221 0.019393155 -0.07949294 -0.097155295
000020 f6 25 a3 bd f2 35 5f 3d a7 b5 c5 3c 42 2e 10 bd
       -0.07966225 0.054494806 0.02413447 -0.035200365
000030 5c b8 9a 3d 56 d4 8f 3d 8f 2d 4e be 8f 46 90 bd
       0.07554695 0.07022922 -0.20134567 -0.07044708
000040 bc c0 5a 3c 91 ff 38 3d 28 ae 98 3d c1 46 a2 be
       0.0133516155 0.045165602 0.07455093 -0.31694606
000050 b1 42 c8 bd d3 04 93 bd a5 00 8d 3d 28 c3 da 3c
       -0.097783454 -0.071786545 0.068848886 0.026704386
000060 90 cf 1c 3d 82 30 55 3d 2b ee e1 bd 45 ba 00 be
       0.038283885 0.052048214 -0.11031755 -0.12571056
000070 69 ee 4b 3c 5d b6 aa bd 66 6d cf bd 5a fa 8b bc
       0.012446978 -0.08335564 -0.10128288 -0.01708715
000080 a9 3c 1c 3e 98 eb 17 bc e0 74 06 3c 04 97 c8 3d
       0.15257515 -0.0092724785 0.008206576 0.09794429
000090 b1 d9 33 3d 12 0d 80 bc 62 d3 4d 3e c1 fa 81 3d
       0.04390878 -0.015631232 0.20100167 0.06346656
0000a0 c5 77 e7 bd 9f a8 e1 3d 04 f8 c8 3d 09 68 41 3d
       -0.11302141 0.1101849 0.0981293 0.047218356
0000b0 77 95 19 3e 9a a1 be 3c 62 2b 03 3c 24 67 07 3d
       0.14998423 0.023270417 0.008005949 0.033057347
0000c0 d4 40 cd 3d 27 37 0d 3d ec b1 27 3d c7 1c 1e be
       0.100221306 0.034476425 0.040941164 -0.15440665
0000d0 60 64 6c be d5 c2 cc 3d 62 62 9e bc d0 c8 72 3d
       -0.23085165 0.09998099 -0.019334022 0.05927354
0000e0 07 38 ef bd 52 8a d1 bd a6 80 d2 3d 8a 5e c6 3d
       -0.11680608 -0.10231461 0.10278444 0.09686001
0000f0 64 ba ad bb 89 38 ad bb e2 d2 bd 3d 92 53 41 be
       -0.0053017605 -0.0052862805 0.09268738 -0.18879536
000100 4b 55 59 bc c0 58 8f ba 33 5a ae 3d 3f 4b 9f 3d
       -0.013264964 -0.0010936484 0.08513298 0.07778024
000110 76 7e 30 be fc 9e 8b bc 0f 50 6e bd ad 7b 07 3d
       -0.17235741 -0.017043583 -0.05818182 0.03307693
000120 2e 00 0b 3e 2d db 90 bd 0b b1 74 bd 76 8b 3b be
       0.13574287 -0.070730545 -0.059739154 -0.18314919
000130 5c 31 52 be c7 cc a9 3d 7e 05 b8 bd 5d 9f e3 3c
       -0.20526642 0.08291011 -0.089854226 0.027785951
000140 c3 6c 85 bd 54 f4 e7 bd 44 51 0f bd 47 60 f2 bd
       -0.06514885 -0.11325899 -0.03498961 -0.1183477
000150 86 94 0e be 07 52 a0 3c 8c a7 32 3d 1f a2 f7 bc
       -0.13923845 0.019570364 0.043616816 -0.030228673
000160 36 cf 1e 3e f1 91 eb 3d 7a 15 77 bd e8 9b dd bc
       0.15508732 0.115024455 -0.060323216 -0.027051881
000170 60 59 8c bd 52 92 29 3e 37 bf 6a bd 45 9e 75 3c
       -0.068529844 0.16559723 -0.057311263 0.014991348
000180 c2 40 2b 3c b2 a9 03 3e d2 bb 15 3e 9e 3c a3 bc
       0.010452451 0.12857702 0.14622429 -0.019926365
000190 d1 22 dd bd 89 c5 aa be 29 1d e6 bc 0f f0 9a 3c
       -0.10797656 -0.33353832 -0.028090077 0.018913297
0001a0 68 a3 51 bd cc cb 97 3d a4 a4 7a 3d 4a 06 bc 3d
       -0.051181227 0.07411918 0.06119217 0.09180887
0001b0 7f e3 9c 3d 18 81 8d 3c c6 f2 14 3d e8 99 a6 bd
       0.07660579 0.01727347 0.03636434 -0.08134824
0001c0 9a 86 6b 3d 6d 01 30 3d 03 c1 18 3e 30 b5 05 3e
       0.057501413 0.04297011 0.14917378 0.13057399
0001d0 7f 6f 30 3b 9f 0e 1f 3e b5 2c 37 be 06 2c 93 bd
       0.0026921926 0.15532921 -0.17888148 -0.07186131
0001e0 0c af 12 3e 33 4e e9 bd 1c e5 7d 3d d9 68 34 bd
       0.14324588 -0.113918684 0.061986074 -0.044045303
0001f0 b0 f5 a9 bd 23 69 7d 3d 31 a5 17 3d e2 30 f5 bc
       -0.08298814 0.061867844 0.037022773 -0.029930536
000200 3a c6 b7 3d 55 71 99 bd 2b 35 07 bd 81 46 7f 3d
       0.089733556 -0.074923195 -0.03300969 0.062323097
000210 3c 41 21 bd e3 30 d2 bd a3 b4 e7 3d bf c0 98 bc
       -0.039368853 -0.10263231 0.113137506 -0.018646596
000220 40 3f 2b 3e c9 dd 90 3c 08 8f c2 bc a6 78 55 bd
       0.16723347 0.01768388 -0.023749843 -0.052117012
000230 0a 62 ab 3d 8a e9 64 3d 8d 1f 91 be 5d 3d 97 bd
       0.08368309 0.055886783 -0.28344384 -0.07384751
000240 d2 de 73 be c4 3f e6 bd be 01 b9 3d bb c9 1d 3d
       -0.23815468 -0.11242631 0.090335354 0.038522463
000250 fa 7c 05 bd a2 a3 81 bd 42 8b 01 be 90 37 65 bc
       -0.03258989 -0.063300386 -0.12650779 -0.013990298
000260 50 4c a6 3c bd 82 60 bd 82 f9 63 3d 57 b8 75 bd
       0.02030006 -0.05481218 0.05565787 -0.059990253
000270 d8 fc 89 bc 59 4d ba bd 48 6f 91 3c 95 f6 da 3b
       -0.016844198 -0.09096784 0.017753258 0.006682227
000280 ec 7b f9 bd 8f 41 87 bd 43 7f dd 3c 31 a1 3e 3d
       -0.12181839 -0.06604301 0.027038222 0.046540443
000290 dd fc 0f bd 64 6d 7d 3d 80 ff 24 3e 7a 69 3e 3e
       -0.03515326 0.0618719 0.1611309 0.18594924
0002a0 55 c3 ea 3d e7 be 49 be 6a 27 a9 3d 20 19 3c bd
       0.11463038 -0.1970173 0.08259471 -0.0459224
0002b0 e6 15 b0 bd 46 47 1a be fa c5 52 3e 90 6d 0f bd
       -0.08597927 -0.15066251 0.20583335 -0.035016596
0002c0 3a eb 40 bd 71 fc a2 bc 9e b2 8d 3c e2 c4 72 bd
       -0.04709933 -0.019895764 0.017297085 -0.059269793
0002d0 b5 82 a6 3c 66 11 b8 3c 43 c7 88 be 2b 69 4d 3d
       0.020325998 0.022469234 -0.26714525 0.050149124
0002e0 80 a5 02 ba eb 91 8c 3d 92 3e 2c 3d f2 ca 8d 3d
       -0.0004983768 0.06863769 0.04205186 0.06923474
0002f0 93 3a 21 3d 5e 3f 8d b6 71 0e 8a 3d 5d ca 15 be
       0.0393625 -4.2095044e-06 0.06741036 -0.14627977
000300 ee 8d 37 bd 4b 78 16 be 38 25 79 3d 0b 27 b8 3d
       -0.04481309 -0.14694326 0.06082651 0.08991822
000310 c6 54 c1 bd f2 e4 80 3d ae 7d 3c 3e 56 7d 84 be
       -0.094399974 0.06293668 0.18407318 -0.25876874
000320 c1 b4 e0 3d 85 e2 b4 3c 32 b1 3c be 25 0b aa 3d
       0.10971976 0.02208067 -0.1842697 0.08302907
000330 0b 95 42 3e d1 7f f9 3c 7e 91 f1 bc d4 12 b0 3d
       0.19002168 0.030456455 -0.029488321 0.08597341
000340 f7 e0 db 3b c7 cd 34 bd f3 16 7f be e5 6c 4e be
       0.0067101675 -0.044141557 -0.24911098 -0.20158727
000350 1a 1e 6a bd 6e dd 8f 3d d8 16 4d 3c 7b 1f 6b 3c
       -0.057157613 0.07024656 0.012517653 0.014350767
000360 d2 d1 7d 3e 4d 94 94 3b 05 d3 17 3e ce 43 00 bd
       0.24787071 0.0045342804 0.14826591 -0.031314664
000370 d6 c7 d8 3c a6 bb 0d be 7e b9 9e bc 47 13 12 be
       0.026462477 -0.13841113 -0.019375559 -0.14265166
000380 71 0b a3 bc 77 45 2d 3d 3c 8c b2 3d 13 4a 58 be
       -0.019902917 0.042302575 0.08718154 -0.21122007
000390 9c 2f e6 bc 01 e5 93 3e b8 ab 39 3d 85 b3 0e 3e
       -0.028098874 0.28885654 0.04532978 0.13935669
0003a0 01 e1 35 3e cd 9a 95 3d c1 c5 05 be f7 16 33 3c
       0.17761613 0.073049165 -0.13063718 0.010930768
0003b0 3a 5c 30 3e 41 cb 97 bc da 67 1f be 4f 4b da 3d
       0.17222682 -0.018529536 -0.1556696 0.10658895
0003c0 84 3c 53 3a 3a 55 0a 3e b4 95 73 3e 7f 3a f2 3d
       0.0008058029 0.13509074 0.23787576 0.118275635
0003d0 f0 cc 66 b8 f7 c2 dd 3d 9b ca a7 bc 56 03 f7 3d
       -5.5027136e-05 0.10828202 -0.020482352 0.12061183
0003e0 b1 73 82 3a 46 9d 77 3d 71 27 ac bd d7 26 8c 3d
       0.0009952692 0.060452722 -0.0840596 0.068433456
0003f0 a1 bc 43 be b4 72 8d 3d 87 4f 7a 3d 3c 89 a5 bd
       -0.19114925 0.069066435 0.061111 -0.08082816

fc2.bias f4 [64]
000000 75 ae 0e 3e 36 e4 93 3b 0c 2c 72 3d 67 29 a2 3c
       0.13933738 0.004513289 0.059124038 0.019795133
000010 ce c4 28 bd c6 a3 e3 3d de 0f 8d 3d 5e 6c e3 3d
       -0.041203313 0.11115222 0.06887792 0.11104654
000020 f1 64 ee 3d 9d 51 5d bd f0 9e 14 3d 8b 40 8a bd
       0.11640347 -0.05403291 0.036284387 -0.06750592
000030 ad 0c aa bc b7 de cc 3d 9d b6 6f 3d e5 6e 2f bd
       -0.020757997 0.10003417 0.058523763 -0.042830367
000040 eb 02 2e 3d 67 d3 e7 3d 89 15 fc bd b7 48 ab bd
       0.04248325 0.11319619 -0.12308795 -0.08363479
000050 a0 13 5f bc af af 2c bc e4 c0 e3 3d 4d ff 96 3c
       -0.013615519 -0.010539933 0.11120775 0.018432284
000060 d7 d5 a0 3d da 93 75 bb 10 d8 1e 3d 57 d3 42 3c
       0.07853287 -0.003747216 0.038780272 0.011891208
000070 94 26 11 be c6 79 45 bd aa ef 3d 3d 83 87 22 bd
       -0.14174873 -0.048211835 0.04637114 -0.039680015
000080 19 ba 1c bd d0 27 44 3b 09 72 0c 3d b8 b4 81 bd
       -0.038263414 0.0029930957 0.03428844 -0.063332975
000090 60 0e 3f bd b3 b4 a4 bd 8c dd 94 3d 77 95 51 bc
       -0.04664457 -0.08042278 0.07268819 -0.012791983
0000a0 8f 75 ae b9 b6 c4 3a 3d 63 2b 80 3d 6a 82 74 3d
       -0.00033275454 0.045597754 0.06258275 0.059694685
0000b0 6f 05 66 bd 8a 21 02 3c bd df 0d 3e 50 c1 67 3d
       -0.056157526 0.007942567 0.1385488 0.05658084
0000c0 cf a7 8a bd b3 f4 bf bd 28 6c cd 3d 9a 61 9d 3d
       -0.06770288 -0.093728445 0.10030395 0.07684632
0000d0 b5 59 cf 3d d3 ac cb 3c 38 03 06 bd 89 18 d6 3c
       0.10124532 0.024862682 -0.032717913 0.026134746
0000e0 41 7a 6c 3d 56 45 e6 bd 42 2e 7f 3d e7 72 44 bd
       0.057733778 -0.112436935 0.062299974 -0.047961142
0000f0 ed 8f bf 3b 74 e8 31 3d e2 41 49 bc db 92 8f 3d
       0.0058460147 0.043434575 -0.012283774 0.07010432

fc3.weight f4 [10, 64]
000000 af 8b 06 3d b3 f8 8a bd cc 0d f1 be f8 cb 0b 3d
       0.032848056 -0.06785717 -0.4708084 0.034130067
000010 dc a9 80 be 60 ed df bd 36 74 f3 3d 74 3d 10 bd
       -0.25129592 -0.109339476 0.118874 -0.035214856
000020 e0 bd 64 3d c1 c8 f6 3d fb 17 56 bd 66 72 71 3d
       0.05584514 0.120500095 -0.052268963 0.05894699
000030 82 9b ea 3d 44 b7 1b bd 1b 81 e6 3d ac 42 87 be
       0.11455442 -0.038016573 0.11255094 -0.26418054
000040 a1 5b fb 3d f5 b0 eb bd d9 95 eb 3c 1e 68 03 be
       0.12273336 -0.11508361 0.028757976 -0.12832686
000050 f7 52 9c 3c 3f fe 4e 3c 13 78 de 3d ad 09 8d 3d
       0.01908253 0.012633859 0.10862746 0.06886611
000060 38 08 ee 3d e6 c1 77 bd d6 60 af 3c e6 ae d6 3d
       0.11622661 -0.06048765 0.02140848 0.10482578
000070 9d b1 01 be 93 1c 8c be 66 fa af bd 16 bd 84 3c
       -0.1266541 -0.2736555 -0.085926816 0.016203444
000080 dd 19 fc 3d c9 7b 7c be e8 ac a7 3d 54 73 cf 3c
       0.123096205 -0.24656595 0.08187276 0.025323547
000090 86 9b 7c be 47 e9 33 3e 6d c4 5f 3d 4c a0 47 be
       -0.24668702 0.17569457 0.054630686 -0.19494742
0000a0 5b 19 00 3e 93 71 07 bd 4c 3b 42 bd 9f 05 45 be
       0.12509672 -0.033067297 -0.04741983 -0.19240426
0000b0 3e 87 2f bd 44 ae 52 bd ec 7c 21 3c fd fb 3c be
       -0.042853586 -0.051435724 0.009856444 -0.18455501
0000c0 1c ab 82 bd 2b 71 30 be fd f1 54 bd 26 30 25 be
       -0.06380293 -0.1723067 -0.05198859 -0.16131648
0000d0 de de 5e be 5a 4f 60 3d 98 a6 b5 bd c4 26 ff bb
       -0.21764705 0.054763176 -0.08869666 -0.0077866036
0000e0 9c b1 17 3e f2 e6 32 3d 70 bd 56 be ee a6 11 be
       0.14813846 0.043677278 -0.20970702 -0.14223835
0000f0 20 f2 4a 3d 79 70 25 3e a9 04 81 3d cd 4e 4a be
       0.049547315 0.16156186 0.06299717 -0.19756623
000100 e9 0f 62 be 67 b8 54 3c 9b ef 01 be dd 05 bb bd
       -0.22076382 0.012983418 -0.12689058 -0.09131978
000110 ff 12 07 be e4 0c 7a be 54 4b c0 be 10 09 70 3c
       -0.1319084 -0.2441898 -0.3755747 0.014650598
000120 15 83 84 be 1e 8f 6c be 68 d3 ae 3d d2 64 18 be
       -0.25881258 -0.2310147 0.08536416 -0.1488221
000130 fe 58 64 3d ca 08 93 bd 68 b8 a4 3e a0 1e 96 3d
       0.055748932 -0.07179411 0.3217194 0.0733006
000140 a9 96 28 be a4 fd 89 be ec 29 16 be 74 ff 27 be
       -0.16463722 -0.26951325 -0.1466443 -0.16406041
000150 9b 56 b4 3d 0d dd 8b be 1e 63 80 3d 53 14 00 be
       0.08805581 -0.27317086 0.06268905 -0.12507753
000160 5a 32 c6 be 17 fd 52 be 2c 65 e4 bd 0f 31 b2 be
       -0.3871029 -0.20604359 -0.111521095 -0.34803054
000170 f8 8d 80 3d 1b 5c b8 bd d3 52 94 3d a7 8d 5e bd
       0.062770784 -0.09001943 0.0724236 -0.05433431
000180 9a 2b 3a 3d 90 ab 16 be c3 35 be 3d 98 c2 d1 be
       0.045451738 -0.14713883 0.09287598 -0.40968776
000190 c7 f8 6d 3e 67 d3 1a be 09 cd 09 bd 00 7e 02 3e
       0.23239432 -0.15119706 -0.033642802 0.12743378
0001a0 2a 17 a3 3c d8 99 02 be 6f 31 46 be 56 af 8e be
       0.019908506 -0.12753999 -0.19354795 -0.27868146
0001b0 f9 e4 2c be 2d ed 9d 3d 31 79 b1 3d 86 16 7c bd
       -0.16884221 0.07711253 0.086656936 -0.061544918
0001c0 34 7b 77 3e c3 4b 6f be b5 d2 0e bd a1 88 cb bb
       0.24168092 -0.23368745 -0.034868915 -0.006211356
0001d0 74 5c 60 3d 6a cf 90 be 9c 28 4b be 0c 12 3b 3e
       0.05477567 -0.28283244 -0.1983971 0.18268603
0001e0 c8 dd 5f be 7c c1 9f 3a 9a 6b 5a 3b 0c f5 ae 3e
       -0.21861947 0.00121884 0.0033328296 0.3417133
0001f0 54 54 7b 3d 95 89 f2 3d 1b e9 1d bd e9 db a8 3d
       0.06135972 0.11842648 -0.038552385 0.082450695
000200 be 3d f1 bd ad fc 87 3d 81 dc a8 3d d7 55 94 bd
       -0.117793545 0.06639991 0.08245183 -0.07242935
000210 a3 a4 7e be 09 4f 0e 3e 21 d4 b6 3d 3f fc 77 3d
       -0.24867491 0.13897337 0.08927179 0.060543295
000220 3c 2b fc 3d c4 12 03 be b7 80 39 3a e5 1a f8 bc
       0.12312934 -0.12800127 0.000707637 -0.030286262
000230 ae 18 0d 3e e6 ab 2f 3d e9 82 5e be 7b da 35 be
       0.13778946 0.042888544 -0.21729626 -0.17759125
000240 77 91 90 bd b7 90 bd 3d 50 06 e7 3c c0 a5 33 3c
       -0.07058995 0.09256118 0.028201252 0.010964811
000250 db 02 c5 bb d8 61 a9 3c 3c 25 c2 3d 5d 96 25 bd
       -0.0060123033 0.020676538 0.09479758 -0.0404266
000260 31 e0 93 bd 8d 9f ef 3d 15 d6 cd bc cd 1a 08 3e
       -0.072204955 0.11700354 -0.025126496 0.13291474
000270 ba 99 65 bd bf 61 c8 bd 0b ca de 3d 83 d3 73 be
       -0.05605481 -0.097842686 0.108783804 -0.23811154
000280 a6 e9 9e bc 1d 8e 1a be 5a 4a 56 bd 96 c8 9d 3d
       -0.019398522 -0.15093274 -0.052317 0.07704274
000290 1c f6 3b be 80 8b a1 3d bc 35 10 be c8 ab f7 3d
       -0.18355602 0.07887936 -0.14082998 0.120933115
0002a0 75 d4 46 be 17 3d f9 bb ac b1 e6 3d 07 b7 af 3d
       -0.19416983 -0.0076061594 0.11264357 0.085798316
0002b0 e5 62 fb 3d 9c 68 cb 3d 75 8a c0 bd bd d6 8a bd
       0.12274722 0.09932062 -0.094014086 -0.06779239
0002c0 db 9d 2f bd 61 d2 17 be b1 56 6f be 1e db ce bb
       -0.042875152 -0.14826347 -0.23372914 -0.006312742
0002d0 20 dc ae be 12 d0 b9 bd ab 44 9f bd 19 e5 a7 bd
       -0.34152317 -0.090728894 -0.07776769 -0.08197994
0002e0 84 25 c3 be 67 fe 02 3d 61 98 26 bd 0f 8f b0 bd
       -0.3811456 0.0319809 -0.040672664 -0.08621036
0002f0 7e 49 dd 3d 89 b7 88 3d db 4a 0b bd a6 2d 46 be
       0.10805033 0.066756316 -0.034006935 -0.19353351
000300 69 97 28 be 4f 48 1d be 1e db 20 bf c9 f7 ba 3d
       -0.16464008 -0.15359615 -0.62834346 0.091292925
000310 86 c6 95 bd 76 93 22 be c2 ea b0 3b 72 9e 64 3b
       -0.07313256 -0.15876564 0.005399079 0.003488448
000320 78 c8 73 be 7c b1 6d be 90 06 71 3d 42 ed 33 3d
       -0.23806942 -0.23212236 0.05884415 0.04392744
000330 30 02 9b bd 27 ad 9e bd af 47 43 bc bb 47 8c be
       -0.075687766 -0.0774787 -0.011918946 -0.27398476
000340 7a 49 b6 bc c0 96 b5 3d e3 65 30 be e6 c3 07 be
       -0.022251833 0.08866644 -0.17226367 -0.13258323
000350 ab d7 09 be a9 ba 79 3d 85 37 9c bd 7a a8 40 be
       -0.13461177 0.06096903 -0.07627777 -0.18814269
000360 b3 fc 53 be 03 22 37 bc bb 02 e1 bd 98 6c cb bb
       -0.20701866 -0.011177543 -0.10986849 -0.0062080137
000370 28 17 72 3d 7b a2 0e bd 7b 65 d9 bd 9a 53 d9 be
       0.059104115 -0.034822922 -0.10615059 -0.42446595
000380 85 e2 95 be e7 c8 0b 3e 0a e5 f5 3d 64 bb 1f be
       -0.29274383 0.13650857 0.12006576 -0.15598828
000390 7f d9 bf bd 11 38 26 be dc 0d 0e 3e 2a 34 dd 3d
       -0.09367656 -0.16232325 0.13872474 0.10800965
0003a0 9a 0f 7d 3d e5 da 98 bc d3 67 69 be 74 f0 fd bd
       0.061782457 -0.018659065 -0.22793512 -0.123993784
0003b0 10 e8 cf 3d 42 8e 04 3e ea 24 13 3e 26 9c 45 3d
       0.10151684 0.12944892 0.1436955 0.048244618
0003c0 58 d7 98 be f7 a3 82 be 32 93 f5 3d 09 4b c7 3d
       -0.29851794 -0.2551572 0.11990966 0.09731109
0003d0 f7 22 f3 be cb d9 1b 3e 1f 02 07 be 60 4e 04 3e
       -0.47487614 0.152198 -0.13184403 0.12920523
0003e0 86 0b 11 be 60 58 19 3d 98 a0 26 3e 3a 86 f9 bd
       -0.14164552 0.037437797 0.16272199 -0.12183805
0003f0 f8 76 93 bd 75 d8 91 3d b4 0c b4 bd 4f 91 40 bc
       -0.07200426 0.07121364 -0.087914854 -0.011753394

fc3.bias f4 [10]
000000 e7 8e c4 bd 3b 76 93 bb 58 51 a8 3d 28 20 0f 3c
       -0.09597569 -0.004500178 0.0821864 0.008735694
000010 3d 57 b7 3c 06 73 3b bc 02 80 9e 3c 54 9c e9 3d
       0.022380466 -0.011440998 0.019348148 0.1140677
000020 92 f6 4c 3e e3 7f b0 bd
       0.20015934 -0.086181425
