model/lit_fashion_mnist_model_2024-08-10_17-36-21.pth (torch, 440624 bytes, 6 tensors)

fc1.weight f4 [128, 784]
0.013348416 -0.0015008537 0.016149854 0.04129038 -0.009606594 -0.014823141 0.02827907 0.011261299
-0.10821604 -0.13175885 -0.11349769 0.19631222 0.08510366 -0.0067349137 0.050968293 0.056365862
0.24040724 0.084231794 -0.12734045 -0.1353499 -0.023104453 0.07540901 0.045150433 0.027465189
0.0103231575 -0.0018592051 0.017836077 0.028275851 0.027363444 0.04774459 0.02917804 -0.018315906
0.008311018 0.04195579 0.012416599 -0.20496055 -0.20617762 0.18600608 -0.04772173 0.16664898
0.26225793 0.25041065 0.21465205 0.12874669 0.041341953 -0.060306367 0.18682088 -0.09238611
-0.2541511 -0.056105595 -0.010433684 0.026685938 -0.020161781 0.016087947 0.041107185 0.0192496
0.031608857 -0.0080740545 0.033869658 -0.0064911377 0.016089456 -0.0424915 -0.15707554 -0.10555374
-0.04471254 -0.022700043 -0.22776419 -0.18203586 -0.15945561 -0.083121225 0.0052852505 -0.12222182
-0.29198024 -0.20929407 -0.03511863 -0.028504405 -0.14760451 -0.098738894 -0.096560225 -0.022810955
0.043316342 0.038934965 0.0011715287 0.032652274 0.04417176 0.0067350655 0.020004677 -0.01336382
-0.010154823 -0.0043878653 -0.07832288 -0.0017801498 -0.06899861 0.044075303 -0.108668946 -0.03315145
-0.055389415 0.057584506 -0.0455177 0.10316967 0.0773937 -0.038268507 0.102352604 -0.15441136
-0.1579391 -0.13891998 -0.08571727 -0.0052023185 0.034778416 0.07538573 -1.8317165e-05 0.021517707
0.009820503 0.050758913 0.0028408524 0.021118563 0.014487683 0.0061894865 -0.021232557 -0.078608565
-0.010356212 -0.06667771 0.021836398 0.0301671 -0.18323715 -0.14483221 -0.25880116 0.09901207
0.03827629 -0.037403945 0.10620892 -0.005094872 -0.14038004 -0.04544843 -0.08764827 0.015335576
-0.008860557 0.08385607 0.03698896 0.058297075 0.058165055 0.082019225 0.041971337 0.005382254
0.04455925 0.036632 0.039065942 0.018290242 0.15702288 0.03591552 0.054645278 0.023173984
0.014759222 -0.09291974 -0.07492107 0.2016927 -0.027107282 0.1378484 0.060152505 0.021499002
-0.09422555 -0.13833201 -0.036456738 0.008213022 -0.019776208 0.0658231 0.052068044 0.029848639
0.048593827 0.03360616 0.021781046 0.03264718 -0.0065971273 -0.029412663 0.08809715 0.05294831
0.1570968 0.10409492 -0.04529017 -0.0072029163 0.08274331 -0.0005473537 -0.13664931 0.055378545
0.21411534 -0.06697712 0.034877375 0.1956063 0.05386183 -0.046963185 -0.05584909 -0.0036889256
-0.03571127 0.0661419 0.066387035 0.02577105 -0.0019045603 0.05482434 0.030764665 -0.011193943
-0.02463755 -0.11044031 0.1293494 0.096494764 0.11733689 0.11218427 -0.05567369 0.07041753
0.07476132 0.05556039 -0.07767177 0.11008772 0.07836572 -0.18322961 -0.037942246 0.13725072
0.08787539 0.019848982 0.035991617 -0.07452266 0.0012033946 0.08665775 0.0542457 0.023644764
0.029668959 0.027369628 0.024871683 0.007182433 0.031987164 -0.009228632 0.096380405 0.118086845
0.10618281 0.049326487 -0.15466674 -0.02433885 -0.038083896 0.04862679 -0.029250309 0.03929304
-0.10231853 -0.20837808 -0.19265403 0.050284576 -0.011906159 0.12403603 0.08390172 -0.10000152
0.018966634 0.017059881 0.05235825 0.071786486 0.05788534 0.04695095 0.038778845 0.006435962
00000000: 51b3 5a3c 4bb8 c4ba b34c 843c 1a20 293d
00000010: fa64 1dbc c2dc 72bc 82a9 e73c 5081 383c
00000020: 5fa0 ddbd cbeb 06be 7a71 e8bd 1206 493e
00000030: d44a ae3d 8db0 dcbb 21c4 503d e4df 663d
00000040: 512d 763e b881 ac3d 8965 02be 2a99 0abe
00000050: 8d45 bdbc 0a70 9a3d a9ef 383d adfe e03c
00000060: 7622 293c 92b0 f3ba f71c 923c c2a2 e73c
00000070: 4d29 e03c d58f 433d c906 ef3c 3d0b 96bc
00000080: f02a 083c d6d9 2b3d fe6e 4b3c 2ee1 51be
00000090: 3a20 53be 6178 3e3e dc77 43bd 08a6 2a3e
000000a0: ac46 863e d335 803e bfcd 5b3e 2cd6 033e
000000b0: 2e56 293d cf03 77bd f94d 3f3e ee34 bdbd
000000c0: 1820 82be fbce 65bd 0bf2 2abc 789c da3c
000000d0: 522a a5bc dfca 833c 0260 283d 56b1 9d3c
000000e0: 4a78 013d 0a49 04bc e9ba 0a3d 9cb3 d4bb
000000f0: 09ce 833c 910b 2ebd 69d8 20be 8f2c d8bd
00000100: 7f24 37bd 71f5 b9bc 043b 69be 9c67 3abe
00000110: 5548 23be 763b aabd e52f ad3b 6f4f fabd
00000120: 6f7e 95be 2f51 56be 8dd8 0fbd 1282 e9bc
00000130: a325 17be 9e37 cabd 5ec1 c5bd 0ade babc
00000140: 7a6c 313d 457a 1f3d fb8d 993a 64be 053d
00000150: 73ed 343d d3b1 dc3b d9e0 a33c ecf3 5abc
00000160: 6a60 26bc 15c8 8fbb bf67 a0bd ea53 e9ba
00000170: 254f 8dbd 4e88 343d d38d debd d1c9 07bd
00000180: 03e0 62bd bbdd 6b3d c570 3abd 9f4a d33d
00000190: 9780 9e3d 70bf 1cbd 3e9e d13d 031e 1ebe
000001a0: caba 21be 0a41 0ebe 898c afbd 3678 aabb
000001b0: d073 0e3d d563 9a3d d0a7 99b7 e745 b03c
000001c0: 2de6 203c 94e8 4f3d 982d 3a3b d600 ad3c
000001d0: bf5d 6d3c 2dd1 ca3b e6ef adbc 87fd a0bd
000001e0: 1aad 29bc 538e 88bd 3fe2 b23c fe20 f73c
000001f0: 85a2 3bbe e54e 14be 9681 84be d7c6 ca3d
00000200: 99c7 1c3d e134 19bd 1084 d93d e2f2 a6bb
00000210: c9bf 0fbe 2228 3abd f080 b3bd 1142 7b3c
00000220: df2b 11bc bbbc ab3d bc81 173d eac8 6e3d
00000230: 7b3e 6e3d b2f9 a73d 23ea 2b3d 9e5d b03b
00000240: c383 363d 700b 163d 9c03 203d 6bd5 953c
00000250: 9bca 203e 271c 133d bad3 5f3d 5ed7 bd3c
00000260: aad0 713c b44c bebd 3870 99bd 8888 4e3e
00000270: 1710 debc 2228 0d3e 7962 763d ad1e b03c
00000280: 53f9 c0bd e8a6 0dbe a953 15bd e98f 063c
00000290: b701 a2bc 43ce 863d 4d45 553d 2285 f43c
000002a0: 520a 473d 9da6 093d 2a6e b23c 0db9 053d
000002b0: b72c d8bb d3f2 f0bc 476c b43d 54e0 583d
000002c0: fcdd 203e b82f d53d 2f82 39bd 7106 ecbb
000002d0: 5375 a93d 497c 0fba cced 0bbe 9dd4 623d
000002e0: 0d41 5b3e 4d2b 89bd 94db 0e3d 054d 483e
000002f0: 399e 5c3d 785c 40bd 04c2 64bd e7c1 71bb
00000300: fb45 12bd 6875 873d edf5 873d cf1d d33c
00000310: 70a2 f9ba 7d8f 603d 2e06 fc3c cd66 37bc
00000320: b0d4 c9bc 872e e2bd 2b74 043e 0c9f c53d
00000330: 534e f03d dec0 e53d 180a 64bd 1137 903d
00000340: 771c 993d 4b93 633d 6012 9fbd ac75 e13d
00000350: 357e a03d 8ba0 3bbe 5469 1bbd 748b 0c3e
00000360: 03f8 b33d 559a a23c f26b 133d 569f 98bd
00000370: 39bb 9d3a 9e79 b13d bd30 5e3d aab2 c13c
00000380: 510c f33c 4536 e03c b3bf cb3c 9d5a eb3b
00000390: f904 033d b033 17bc 1763 c53d 84d7 f13d
000003a0: 6076 d93d 920a 4a3d f560 1ebe 4562 c7bc
000003b0: dcfd 1bbd e32c 473d 589e efbc bdf1 203d
000003c0: 618c d1bd 1061 55be 1947 45be 33f7 4d3d
000003d0: 0d12 43bc 9a06 fe3d aad4 ab3d 99cd ccbd
000003e0: ea5f 9b3c 2ac1 8b3c 9b75 563d cb04 933d
000003f0: 2e19 6d3d a44f 403d 91d6 1e3d c3e4 d23b

fc1.bias f4 [128]
-0.031489912 0.009365652 -0.009059605 0.0044200155 -0.00048708293 -0.099569134 -0.06238659 -0.061924387
0.027327863 0.0017652198 0.040317167 -0.04023765 -0.010965457 -0.035938017 0.017303592 0.003444286
-0.047750294 -0.08554409 -0.06170467 -0.041138764 0.028491985 -0.023570064 -0.0050181234 -0.092184395
-0.03791411 0.008385389 0.002905556 0.0017312164 -0.08047773 -0.028465394 -0.041849654 -0.07515272
-0.03890671 -0.07914901 -0.0045074895 -0.0020031792 -0.041625384 0.007717491 -0.0038794614 -0.006670941
0.061446242 0.019952148 -0.043115407 0.025078611 -0.026077285 -0.05541884 -0.019084716 -0.06833059
0.020059804 -0.046685833 -0.0053443066 -0.06719403 -0.023194352 -0.051517066 0.01240965 0.027275013
-0.035494737 0.042201042 -0.016711174 0.14573853 -0.026575498 -0.01378805 0.012704106 0.014717714
-0.039101463 -0.1029917 0.019965565 -0.031684805 -0.012368708 0.061268676 -0.035363864 0.009584495
0.010993366 -0.005136352 -0.013175973 -0.078634754 0.023099948 -0.021740045 -0.023769556 -0.052631363
-0.028059285 -0.025107231 -0.030909123 -0.0059591597 0.008061822 -0.023989752 -0.0014369533 0.057678815
-0.0154528795 -0.088750735 -0.05537545 -0.02447362 -0.02757186 -0.10097014 -0.045582574 0.04702865
-0.06386202 -0.027920911 -0.052463215 -0.07372683 0.045431826 -0.040055938 -0.0390772 0.0049346383
-0.017551892 -0.04299584 0.06744372 -0.032611743 -0.0057730903 0.016647387 -0.03264823 -0.008900063
-0.022240203 -0.06348349 0.029599132 -0.027712904 -0.03409997 -0.061328903 -0.05670027 -0.036203984
0.06943771 -0.07979307 -0.07468502 -0.058386005 -0.029679956 -0.050140508 0.08445537 0.0497117
00000000: 91fb 00bd 6472 193c bd6e 14bc c7d5 903b
00000010: 2a5f ffb9 e7ea cbbd 1589 7fbd 6da4 7dbd
00000020: afde df3c f35e e73a 9d23 253d 3cd0 24bd
00000030: 76a8 33bc be33 13bd 43c0 8d3c 88b9 613b
00000040: d095 43bd bd31 afbd 09be 7cbd 1f81 28bd
00000050: 0668 e93c 0216 c1bc 126f a4bb 2ccb bcbd
00000060: d34b 1bbd df62 093c 246b 3e3b fce9 e23a
00000070: 82d1 a4bd 4230 e9bc 8b6a 2bbd abe9 99bd
00000080: a45c 1fbd e018 a2bd 90b3 93bb c547 03bb
00000090: 617f 2abd 02e3 fc3b 903e 7ebb e997 dabb
000000a0: 0eaf 7b3d b072 a33c c899 30bd a971 cd3c
000000b0: 08a0 d5bc defe 62bd 8d57 9cbc e9f0 8bbd
000000c0: 7554 a43c a539 3fbd 4b1f afbb 069d 89bd
000000d0: 1502 bebc 8f03 53bd d851 4b3c d96f df3c
000000e0: ee62 11bd 00db 2c3d dfe5 88bc 7b3c 153e
000000f0: dcb4 d9bc 46e7 61bc e224 503c 9122 713c
00000100: db28 20bd 50ed d2bd d38e a33c edc7 01bd
00000110: 1fa6 4abc ddf4 7a3d b3d9 10bd 4908 1d3c
00000120: 851d 343c d84e a8bb 09e0 57bc 420b a1bd
00000130: 1a3c bd3c 2e18 b2bc 5fb8 c2bc fc93 57bd
00000140: 96dc e5bc aead cdbc 2135 fdbc 0e45 c3bb
00000150: bb15 043c 2886 c4bc 2758 bcba 9f40 6c3d
00000160: 132e 7dbc f2c2 b5bd 5ed1 62bd e77c c8bc
00000170: 62de e1bc 6fc9 cebd cbb4 3abd 1da1 403d
00000180: 17ca 82bd 65ba e4bc abe3 56bd 18fe 96bd
00000190: b916 3a3d b211 24bd 6a0f 20bd bfb2 a13b
000001a0: fcc8 8fbc 681c 30bd ef1f 8a3d e493 05bd
000001b0: 312c bdbb 1a60 883c 27ba 05bd 92d1 11bc
000001c0: 1631 b6bc a203 82bd e179 f23c 2c06 e3bc
000001d0: 69ac 0bbd 0434 7bbd 8b3e 68bd a14a 14bd
000001e0: 5c35 8e3d 8d6a a3bd 76f4 98bd 2a26 6fbd
000001f0: 6123 f3bc 2260 4dbd f0f6 ac3d 7f9e 4b3d

fc2.weight f4 [64, 128]
0.0026442474 -0.048729632 -0.027125014 -0.017222393 -0.07571145 0.02070792 0.030143289 -0.15622863
0.17283696 -0.32117718 0.027941287 0.18415485 0.037885223 -0.033063542 -0.11099762 -0.07114388
0.08812749 -0.09443676 -0.035280753 0.024216548 0.006557326 -0.007652329 0.003082827 -0.028015025
-0.0049624853 -0.16162917 -0.05556997 0.036273725 0.017752098 -0.04048759 0.21377826 0.03683289
-0.024133647 -0.2562205 -0.08317678 0.16925259 -0.110827945 0.19348966 -0.13319091 -0.07153895
0.1043723 0.16528378 0.29840484 -0.056145523 -0.036176007 0.061055344 -0.25332522 0.09521618
-0.09048446 -0.12170782 0.062545426 0.07897963 0.12161505 0.065190546 0.14485295 0.026556028
-0.04135824 0.2655818 -0.07265945 0.0578072 0.13333623 -0.04060615 0.19493403 0.04203988
0.07676971 0.04009256 0.0019971062 -0.016362442 -0.048313893 -0.20595469 0.022853404 0.04835939
-0.07023821 0.23147754 0.15353478 -0.0052415794 0.14575487 -0.006683716 0.3227452 -0.19918932
-0.028309125 0.21850313 0.07158208 -0.116224274 0.11817524 -0.09784708 -0.18176943 -0.07880314
-0.089868315 0.26512262 -0.0638088 -0.13622668 0.13312428 -0.09608616 -0.020540006 -0.22945982
0.004583096 0.19992557 -0.02316951 -0.17253786 0.10341556 -0.021461733 -0.08830634 -0.0054034395
-0.052316595 0.07877011 0.0068533705 0.17026815 0.1346713 0.002843916 0.034945674 0.066144004
0.009225563 0.1089865 0.073367275 0.19310576 0.112719774 0.21151161 -0.15669194 -0.2947529
-0.07509549 0.08274624 -0.28368548 0.07472162 0.1042434 -0.012871702 -0.06232846 -0.09763546
0.038416333 0.10523054 0.09530687 -0.19513018 -0.1609377 -0.09459244 -0.05406663 0.027321218
0.09549516 -0.14560942 -0.21268685 0.0023074434 -0.17309204 0.15109204 -0.18473807 -0.15255296
0.05783673 -0.16827962 0.17897719 -0.08231342 -0.08920907 -0.016153628 -0.029468454 -0.002594404
0.080038324 -0.2076549 0.040535618 -0.21484098 0.057900894 -0.15905221 0.0101564275 0.042587277
-0.0119059635 0.12673746 -0.016253041 -0.032372452 -0.006863348 -0.2684328 -0.19740152 -0.03818754
0.025644302 -0.108697005 0.15565233 0.004617848 0.0034805445 -0.042676356 0.039832436 -0.112604
-0.11522907 0.14246432 0.018743798 -0.11792501 -0.001473309 -0.12296962 0.04130321 -0.023726445
0.012536383 -0.14882554 0.016512504 -0.059429627 -0.0008455029 -0.10395439 -0.00917127 0.03912238
-0.24194607 -0.014241423 0.13707502 -0.017819349 -0.09087459 -0.09428056 -0.06376732 -0.04912853
0.06824824 -0.06629831 -0.03533939 0.13398303 -0.09778333 0.05357473 -0.09417952 0.08000108
-0.07725024 -0.34744287 0.04349332 0.016873049 0.040669035 -0.031525202 -0.06372456 -0.23245436
-0.096342094 -0.07086371 -0.13667384 -0.04850092 -0.1777955 0.023470832 -0.22599073 0.08573578
-0.03830008 -0.1485761 0.04778121 -0.042908516 -0.04245778 -0.017904988 -0.17973042 -0.10662771
-0.05929278 -0.10199758 -0.08364076 0.04903549 -0.23567449 -0.005976296 -0.00077102595 0.063844174
-0.09495852 0.02985671 0.13413946 0.10466629 0.015908178 0.09572516 -0.18793032 0.15546942
0.09641946 0.112223454 -0.24971008 -0.10994981 -0.16972688 -0.039001457 -0.002335694 -0.31820977
00000000: 1c4b 2d3b b998 47bd 4735 debc fa15 8dbc
00000010: 9b0e 9bbd a8a3 a93c 0fef f63c 66fa 1fbe
00000020: 2cfc 303e 5671 a4be 20e5 e43c 1793 3c3e
00000030: 892d 1b3d a36d 07bd b852 e3bd e2b3 91bd
00000040: 2f7c b43d 0f68 c1bd 8d82 10bd c861 c63c
00000050: d6de d63b 63c0 fabb 4109 4a3b c47f e5bc
00000060: 589c a2bb 1e82 25be 569d 63bd c293 143d
00000070: d96c 913c 51d6 25bd b0e8 5a3e 16de 163d
00000080: edb3 c5bc 552f 83be 9658 aabd 8d50 2d3e
00000090: c3f9 e2bd 2722 463e 3363 08be 0383 92bd
000000a0: 25c1 d53d 2740 293e 85c8 983e d9f8 65bd
000000b0: 4b2d 14bd 2b15 7a3d d8b3 81be b300 c33d
000000c0: eb4f b9bd f341 f9bd d117 803d 12c0 a13d
000000d0: 5011 f93d 9f82 853d 5554 143e 078c d93c
000000e0: 4267 29bd 56fa 873e 7ace 94bd 3ec7 6c3d
000000f0: 4b89 083e a252 26bd c99c 473e 0232 2c3d
00000100: 7039 9d3d 1938 243d e2e1 023b 870a 86bc
00000110: cae4 45bd c9e5 52be 1037 bb3c 7f14 463d
00000120: 0dd9 8fbd 7308 6d3e 3938 1d3e 8ec1 abbb
00000130: c440 153e 1303 dbbb dc3e a53e 49f8 4bbe
00000140: 8ae8 e7bc 49bf 5f3e a099 923d fe06 eebd
00000150: dc05 f23d 0d64 c8bd c421 3abe 8a63 a1bd
00000160: e10c b8bd 27be 873e 30ae 82bd 027f 0bbe
00000170: bb51 083e d2c8 c4bd 8443 a8bc 84f7 6abe
00000180: cc2d 963b 4ab9 4c3e fccd bdbc c4ad 30be
00000190: 8acb d33d 84d0 afbc f4d9 b4bd 560f b1bb
000001a0: ed49 56bd 3952 a13d 3d92 e03b c65a 2e3e
000001b0: 46e7 093e fe60 3a3b 3223 0f3d 8276 873d
000001c0: d126 173c 5034 df3d 9541 963d 84bd 453e
000001d0: a0d9 e63d 8096 583e da73 20be dae9 96be
000001e0: aacb 99bd dc76 a93d 393f 91be a607 993d
000001f0: 907d d53d d5e3 52bc 214c 7fbd 1af5 c7bd
00000200: 725a 1d3d 1c83 d73d 4030 c33d 35d0 47be
00000210: dacc 24be aeb9 c1bd f874 5dbd bfd0 df3c
00000220: f792 c33d a31a 15be 95ca 59be 7a38 173b
00000230: 0a3f 31be dfb7 1a3e fa2b 3dbe d836 1cbe
00000240: 35e6 6c3d 7e51 2cbe cc45 373e f093 a8bd
00000250: 3fb3 b6bd 9d54 84bc d467 f1bc e006 2abb
00000260: 22eb a33d 7ca3 54be ad08 263d 46ff 5bbe
00000270: 7d29 6d3d 95de 22be 2567 263c ff6f 2e3d
00000280: 3b11 43bc 77c7 013e 1925 85bc fa98 04bd
00000290: f0e5 e0bb 0670 89be a023 4abe 8a6a 1cbd
000002a0: 0014 d23c 899c debd 5363 1f3e 5151 973b
000002b0: d919 643b 67cd 2ebd 5627 233d ed9c e6bd
000002c0: 38fd ebbd 2be2 113e 988c 993c ab82 f1bd
000002d0: 0c1c c1ba 7fd7 fbbd 8e2d 293d f65d c2bc
000002e0: 6765 4d3c b965 18be 3b45 873c 7b6c 73bd
000002f0: bda4 5dba 0ae6 d4bd 1843 16bc ca3e 203d
00000300: b6c0 77be dc54 69bc 655d 0c3e e2f9 91bc
00000310: 751c babd 2b16 c1bd 7198 82bd ff3a 49bd
00000320: bcc5 8b3d 69c7 87bd 09c0 10bd d932 093e
00000330: a042 c8bd 2d71 5b3d 31e1 c0bd 9bd7 a33d
00000340: 6035 9ebd 08e4 b1be 0d26 323d 5939 8a3c
00000350: 9394 263d 9220 01bd 0682 82bd 8408 6ebe
00000360: 014f c5bd fe20 91bd 3af4 0bbe e7a8 46bd
00000370: 0610 36be e745 c03c 1d6a 67be 3e96 af3d
00000380: 8be0 1cbd 5524 18be 3bb6 433d d7c0 2fbd
00000390: 36e8 2dbd 7bad 92bc 400b 38be a15f dabd
000003a0: fcdc 72bd 1be4 d0bd d94b abbd 70d9 483d
000003b0: a754 71be ced4 c3bb ad1e 4aba bcc0 823d
000003c0: 9d79 c2bd 0f96 f43c db5b 093e 485b d63d
000003d0: de51 823c 8d0b c43d ce70 40be 6033 1f3e
000003e0: 9177 c53d 69d5 e53d 00b4 7fbe 5e2d e1bd
000003f0: e2cc 2dbe febf 1fbd 7112 19bb 64ec a2be

fc2.bias f4 [64]
-0.03168711 0.029758964 -0.015810221 0.006404432 -0.071554 -0.0018400982 -0.015119067 -0.11115932
-0.058621686 -0.024178091 -0.14451668 0.13026637 -0.10434134 -0.0719155 0.07039691 0.021417497
0.07135701 0.033067603 0.057936825 -0.021769013 0.13044263 -0.12418868 0.047879428 0.13385423
-0.008828749 0.026678089 -0.037216272 0.118037954 -0.10226575 -0.14961596 0.09329816 -0.1223991
0.041920397 -0.022117313 0.12493576 0.15353578 0.0015546415 0.04047151 0.011565795 0.112418994
0.04199833 0.10505069 0.010255665 0.06352823 0.006482816 0.022418663 -0.14246473 0.070518084
-0.066782065 -0.13957225 -0.009055107 0.09133142 0.01366098 0.17532513 0.026371678 -0.07131419
-0.06913491 -0.0014889556 0.06947238 -0.056229852 -0.030447371 -0.0017402495 -0.03878152 -0.064822085
00000000: 58ca 01bd 12c9 f33c 7084 81bc 45dc d13b
00000010: e78a 92bd 732f f1ba f7b5 77bc 7fa7 e3bd
00000020: 4b1d 70bd 2211 c6bc 2efc 13be 8c64 053e
00000030: eab0 d5bd 6f48 93bd 412c 903d bf73 af3c
00000040: a023 923d e571 073d 2a4f 6d3d ee54 b2bc
00000050: c192 053e a256 febd 381d 443d 1511 093e
00000060: 75a6 10bc 028c da3c 1770 18bd e2bd f13d
00000070: b570 d1bd ed34 19be 1b13 bf3d 61ac fabd
00000080: b9b4 2b3d 5e2f b5bc 52de ff3d 7c38 1d3e
00000090: 1dc5 cb3a 74c5 253d 767e 3d3c ee3b e63d
000000a0: 7106 2c3d d124 d73d 6007 283c 171b 823d
000000b0: cd6d d43b 58a7 b73c 46e2 11be c96b 903d
000000c0: 09c5 88bd 07ec 0ebe df5b 14bc f80b bb3d
000000d0: 4ed2 5f3c 6e88 333e 6b09 d83c 2d0d 92bd
000000e0: 9b96 8dbd 0f29 c3ba 8947 8e3d 4651 66bd
000000f0: c46c f9bc 1519 e4ba 5fd9 1ebd 71c1 84bd

fc3.weight f4 [10, 64]
0.10715018 -0.03334654 0.11062477 -0.03521659 0.11949924 -0.018514927 -0.010497643 0.04753085
-0.091661535 0.00702751 0.029684879 0.17658912 -0.042096958 0.11198068 -0.13936569 0.11316145
-0.15480874 -0.19416027 -0.2110741 -0.14872128 -0.14869925 0.08672028 0.067332864 -0.35879284
0.03703617 -0.16992016 0.11112623 -0.027406717 -0.05019348 0.09071889 0.08709861 0.078154065
0.11900125 0.071933895 0.14002801 -0.29596782 -0.06319445 -0.27004176 0.059523355 -0.16432883
0.2023118 -0.06866722 0.021020424 0.06474231 -0.064379856 -0.14163794 -0.11051446 0.102556586
0.13409969 -0.09316308 0.13153008 -0.0231886 -0.110020824 0.04284591 -0.17538385 -0.06476454
-0.012829791 -0.14205554 -0.15638728 -0.09950027 -0.004426576 0.15818815 0.075566515 0.13863637
0.093458064 -0.09032245 -0.15549916 -0.13385083 -0.018880619 0.16812018 0.07962097 -0.15592122
-0.08769488 -0.2171399 0.001039206 0.053895786 -0.023076659 -0.10327415 -0.016424648 -0.1327252
0.13052057 -0.00773222 -0.4527961 0.23059025 0.080148354 0.028350916 -0.03004951 0.062325772
0.07540085 -0.07905856 -0.25683132 0.10631266 0.35695565 0.032766182 -0.41506237 -0.3011
0.3061927 0.019602524 -0.41001472 -0.014922153 -0.025465196 0.096227586 0.048800204 0.101299316
-0.47685885 -0.3032086 0.15537326 -0.29729804 -0.12007625 0.06538717 -0.16234647 -0.19666931
-0.011106811 -0.16357154 -0.16680266 0.11179026 0.34784836 -0.14542173 -0.4568399 -0.24921921
0.15448943 -0.4279452 -0.24974456 -0.1632331 -0.13144755 -0.04149337 0.15278085 0.17037778
-0.23200619 -0.230839 0.18185933 -0.08877722 0.07028634 -0.0051581115 -0.23157558 0.011482236
0.13585669 -0.014663208 -0.24412395 0.1261018 -0.10918586 -0.31430465 -0.109842755 -0.22921357
-0.07080742 -0.1361458 0.1181868 0.08756179 0.093415186 -0.25585514 0.14532132 0.12862357
-0.14561312 -0.11769993 -0.026262514 0.046872772 -0.11624348 0.0051303855 -0.1311247 -0.02158309
0.04104526 0.020467108 -0.047089614 -0.3242236 -0.55636823 -0.083408095 0.12385944 -0.1937362
-0.08955502 -0.13777001 0.10129124 0.13127892 -0.28590915 0.04996602 -0.011378308 0.09151929
-0.14290942 0.06381021 0.11429255 0.17293848 -0.080629274 0.111978315 -0.15040699 0.086525016
-0.023464408 0.015545381 -0.115029626 -0.026830167 -0.018684145 -0.2882143 0.11894141 -0.21745443
-0.2627051 0.24141467 0.12984568 -0.32952678 -0.1637887 0.07668486 -0.0060153184 0.09515253
-0.21051049 0.14979793 0.07480637 -0.12403094 -0.20205933 -0.03017302 -0.004716296 -0.2800648
0.0986476 0.079534166 -0.005750198 0.112512104 0.069968104 0.06352814 -0.23683798 -0.1340719
-0.39565545 0.039791007 0.0026797687 0.113022976 -0.18022142 -0.070054114 -0.29132727 -0.081269026
-0.2724036 0.002133621 -0.034439865 -0.14701276 0.13543296 0.16816927 0.0576935 0.039002128
-0.13916741 0.10397989 0.064350046 -0.034736987 0.16298175 0.058144785 -0.08103846 0.20272845
-0.02484261 0.02514934 -0.12079398 -0.22393328 -0.06767793 0.12988675 -0.06308917 -0.3081015
0.038240854 -0.21306264 0.004572573 -0.162808 0.16643889 -0.07576121 -0.13333815 0.08772123
00000000: 8e71 db3d 6296 08bd 3d8f e23d 453f 10bd
00000010: 04bc f43d 9eac 97bc 4efe 2bbc b5af 423d
00000020: 0bb9 bbbd 0747 e63b b42d f33c c7d3 343e
00000030: dc6d 2cbd 2056 e53d e1b5 0ebe 31c1 e73d
00000040: 2f86 1ebe f3d1 46be cf23 58be 644a 18be
00000050: 9e44 18be 679a b13d d0e5 893d b2b3 b7be
00000060: 3db3 173d 8dff 2dbe 2696 e33d 0d84 e0bc
00000070: ae97 4dbd d3ca b93d c260 b23d 3d0f a03d
00000080: edb6 f33d 1452 933d 8163 0f3e 1889 97be
00000090: 186c 81bd ea42 8abe c3ce 733d d145 28be
000000a0: d32a 4f3e 66a1 8cbd 0633 ac3c 9e97 843d
000000b0: 96d9 83bd 8909 11be 6855 e2bd 3009 d23d
000000c0: 6e51 093e 49cc bebd d2af 063e 05f6 bdbc
000000d0: 9952 e1bd 317f 2f3d d397 33be 45a3 84bd
000000e0: 0b34 52bc 0277 11be fd23 20be ccc6 cbbd
000000f0: d00c 91bb 13fc 213e 9ec2 9a3d b1f6 0d3e
00000100: f166 bf3d fafa b8bd 2c3b 1fbe 3110 09be
00000110: 87ab 9abc b227 2c3e 5210 a33d d0a9 1fbe
00000120: 6099 b3bd ec59 5ebe f835 883a d4c1 5c3d
00000130: 430b bdbc 6681 d3bd fc8c 86bc 1de9 07be
00000140: 2fa7 053e 905e fdbb e4d4 e7be da1f 6c3e
00000150: d224 a43d 2e40 e83c 642a f6bc 4f49 7f3d
00000160: c36b 9a3d 74e9 a1bd 657f 83be 74ba d93d
00000170: e4c2 b63e d535 063d 0e83 d4be c729 9abe
00000180: 4ac5 9c3e 7995 a03c 73ed d1be 0c7c 74bc
00000190: 639c d0bc f812 c53d b9e2 473d 0476 cf3d
000001a0: d826 f4be 283e 9bbe 2b1a 1f3e 7337 98be
000001b0: 89ea f5bd b5e9 853d 273e 26be ae63 49be
000001c0: 58f9 35bc 4c7f 27be 51ce 2abe 4bf2 e43d
000001d0: 2e19 b23e 6fe9 14be ebe6 e9be 5233 7fbe
000001e0: 7a32 1e3e a21b dbbe 0abd 7fbe 9426 27be
000001f0: 309a 06be f4f4 29bd 9572 1c3e 8377 2e3e
00000200: 0893 6dbe 0f61 6cbe 5539 3a3e d5d0 b5bd
00000210: 49f2 8f3d 6005 a9bb 2622 6dbe fd1f 3c3c
00000220: 041e 0b3e f43d 70bc a1fb 79be d520 013e
00000230: d69c dfbd 8aec a0be 3df5 e0bd f6b6 6abe
00000240: 7b03 91bd ce69 0bbe ec0b f23d 9953 b33d
00000250: 7650 bf3d 72ff 82be 1dcf 143e e6b5 033e
00000260: 9b1b 15be a90c f1bd 7c24 d7bc aafd 3f3d
00000270: 1011 eebd cb1c a83b 8e45 06be 05cf b0bc
00000280: 131f 283d a3aa a73c 0ae1 40bd a300 a6be
00000290: 266e 0ebf ddd1 aabd 05aa fd3d c862 46be
000002a0: 9f68 b7bd 9513 0dbe c871 cf3d fb6d 063e
000002b0: af62 92be 2ba9 4c3d 156c 3abc 776e bb3d
000002c0: d956 12be edae 823d 3612 ea3d c916 313e
000002d0: f620 a5bd e354 e53d 4a04 1abe 0734 b13d
000002e0: 6e38 c0bc 0eb2 7e3c a794 ebbd f0ca dbbc
000002f0: 7e0f 99bc d390 93be 8e97 f33d 60ac 5ebe
00000300: 4881 86be 6835 773e 44f6 043e bcb7 a8be
00000310: 3ab8 27be f40c 9d3d 261c c5bb 54df c23d
00000320: 1090 57be a164 193e 1534 993d ef03 febd
00000330: a4e8 4ebe 692d f7bc 298b 9abb a764 8fbe
00000340: c107 ca3d cfe2 a23d 286c bcbb bf6c e63d
00000350: 704b 8f3d 0b1b 823d a885 72be 254a 09be
00000360: 5a93 cabe e5fb 223d 0f9f 2f3b 9778 e73d
00000370: f78b 38be 8878 8fbd d928 95be 6070 a6bd
00000380: 7c78 8bbe 38d4 0b3b d110 0dbd 838a 16be
00000390: f0ae 0a3e 9134 2c3e 0550 6c3d b2c0 1f3d
000003a0: e781 0ebe 69f3 d43d f5c9 833d 5f48 0ebd
000003b0: b0e4 263e 3a29 6e3d 7ef7 a5bd 0c98 4f3e
000003c0: bb82 cbbc fd05 ce3c d662 f7bd c44e 65be
000003d0: ba9a 8abd 0801 053e e534 81bd 7bbf 9dbe
000003e0: 71a2 1c3d 182d 5abe 86d5 953b 24b7 26be
000003f0: f56e 2a3e b128 9bbd cc89 08be 30a7 b33d

fc3.bias f4 [10]
0.008120838 -0.1258193 0.12757784 0.037241396 -0.045502048 -0.014326793 0.051176004 -0.027884038
0.13567682 0.028527195
00000000: 430d 053c c6d6 00be c4a3 023e 6f8a 183d
00000010: 5b60 3abd edba 6abc ee9d 513d 116d e4bc
00000020: ddee 0a3e ddb1 e93c
