training/mlruns/824313281332539466/b75957ad14e9450682318469c57fa424/model_artifact/model.pth (torch, 439732 bytes, 6 tensors)

fc1.weight f4 [128, 784]
0.03335783 -0.020190015 0.028366996 -0.0148397945 0.033902016 -0.03799732 -0.092502005 -0.055801496
0.00404574 0.0762916 0.020323664 -0.018634474 -0.021785632 0.0419215 0.009156681 -0.047621038
-0.14797089 0.040061694 -0.033115804 0.034011785 -0.03369686 -0.08055798 0.024571624 -0.004257399
0.017526858 0.021104809 0.016578173 -0.010900305 0.01137789 0.048474982 0.009860059 -0.009065715
0.027274301 -0.0698464 -0.13970862 0.03372779 0.04545549 -0.23068377 -0.08013869 -0.032986976
0.037923645 -0.048892625 -0.1304462 -0.07858328 -0.029112767 0.036154237 -0.14791255 -0.0568236
0.013771109 -0.050198622 -0.059484687 0.013664228 0.0010064107 -0.0048200265 0.048443515 0.032386214
0.024548825 0.010506402 0.043195266 0.033069585 -0.039312683 -0.027797254 0.12566516 0.19428109
-0.014774968 0.06356387 0.06109675 0.0028642789 -0.015847987 -0.17870533 -0.21098119 0.042382114
0.09510499 -0.14798515 0.05660566 0.067157306 0.18093061 0.089100696 0.080450244 0.0068635815
-0.00689427 0.021558402 0.03157327 0.033148453 0.009190891 0.03006072 0.041473694 0.05273086
0.021747313 -0.017688483 0.12901232 0.19866814 0.16728634 0.07373231 -0.02719529 -0.031794
0.06880536 -0.030537598 -0.058093254 0.026325919 -0.04591589 -0.09951909 -0.011308172 -0.04621181
0.29375917 0.30289847 0.19341157 0.06255872 0.036137626 0.03128945 0.012728653 0.025039122
0.013223639 0.018522155 0.02922053 0.05093033 0.05376133 -0.06604729 0.14366177 0.21032275
0.08785313 0.04282702 -0.02188146 0.009517528 0.076137014 -0.0023989002 0.005441042 -0.040935677
-0.05236847 0.04070191 0.05078705 -0.027916752 0.051631037 0.20151396 0.086636655 0.09421859
0.05135011 0.005574939 0.033419456 -0.013604783 -0.0009831213 -0.01695903 -0.013348899 0.01900505
-0.0017385548 -0.0049054776 0.10937283 0.17430927 0.02311225 0.030871924 0.11159969 0.101347476
0.044036202 0.105525546 0.020861097 0.10254226 0.060730617 0.002877291 0.06834858 0.063812345
0.16218276 0.29783317 0.017092 0.0993134 0.044640504 0.040843766 0.03722076 0.001460115
0.005641084 0.0126393 0.03131279 0.039296426 0.013968007 0.03278594 0.097154684 0.2975631
0.06114036 -0.017939268 -0.049856443 -0.060050603 -0.016502382 -0.06216889 0.022569189 0.06577794
0.043597795 -0.030409317 0.018173415 -0.05129438 0.15775138 0.23426516 0.008030632 0.18009771
0.07249508 0.02565635 0.043532506 0.012387382 0.0021713455 0.0032885002 -0.03041789 0.0431584
0.087072745 -0.00059228286 0.055421166 0.29795143 0.074334405 0.07097501 -0.010259627 -0.16585317
-0.03742676 -0.107431516 -0.017444793 0.056435756 -0.112025164 -0.12271549 0.09297114 0.043522943
0.0072483085 0.19648872 -0.09359979 0.06928416 0.007977996 -0.006157689 0.031735968 0.021197032
0.04422254 0.031391226 -0.047230374 0.07057611 0.008756449 -0.0715197 0.0540995 0.19053958
-0.011789799 0.14830524 0.039918862 -0.06580985 -0.0068489676 0.04250082 0.01926173 0.06705439
-0.02322761 0.051675454 0.17546424 0.026678486 0.013064813 0.053095374 -0.13547222 0.08564568
0.037238225 -0.0045297914 0.02271767 0.020881737 -0.010841645 0.02043782 -0.011158772 0.03734243
00000000: 38a2 083d 8865 a5bc e761 e83c 9c22 73bc
00000010: d7dc 0a3d 14a3 1bbd b171 bdbd 1c90 64bd
00000020: 2092 843b c53e 9c3d d07d a63c 53a7 98bc
00000030: c877 b2bc e1b5 2b3d e705 163c 470e 43bd
00000040: ae85 17be bb17 243d 70a4 07bd f14f 0b3d
00000050: b805 0abd 95fb a4bd 6e4a c93c a781 8bbb
00000060: 7c94 8f3c fee3 ac3c f3ce 873c 3197 32bc
00000070: 546a 3a3c b48d 463d 168c 213c 5d88 14bc
00000080: 5b6e df3c a10b 8fbd c70f 0fbe 2726 0a3d
00000090: 892f 3a3d 5e38 6cbe c11f a4bd 5a1d 07bd
000000a0: d355 1b3d a243 48bd b093 05be 45f0 a0bd
000000b0: e67d eebc 7716 143d 6376 17be ddbf 68bd
000000c0: 38a0 613c 129d 4dbd 37a6 73bd eddf 5f3c
000000d0: 8ae9 833a 50f1 9dbb b56c 463d 68a7 043d
000000e0: 9e1a c93c 0b23 2c3c 85ed 303d f973 073d
000000f0: 5606 21bd 11b7 e3bc 5eae 003e 9ff1 463e
00000100: b512 72bc c62d 823d 9640 7a3d a0b6 3b3b
00000110: a3d3 81bc 88fe 36be 740b 58be de98 2d3d
00000120: 68c6 c23d 6b89 17be 56db 673d c589 893d
00000130: e045 393e 6d7a b63d 19c3 a43d e5e7 e03b
00000140: 54e9 e1bb 3f9b b03c f952 013d acc6 073d
00000150: 6495 163c e641 f63c 52e0 293d 50fc 573d
00000160: 6c27 b23c 70e7 90bc ce1b 043e a96f 4b3e
00000170: 1c4d 2b3e f700 973d a8c8 debc 6d3a 02bd
00000180: d3e9 8c3d fc29 fabc 31f3 6dbd 74a9 d73c
00000190: 4d12 3cbd aad0 cbbd e945 39bc 9848 3dbd
000001a0: 9a67 963e 8215 9b3e af0d 463e c91e 803d
000001b0: 0c05 143d 5e29 003d d78b 503c d81e cd3c
000001c0: f6a7 583c c6bb 973c e55f ef3c 529c 503d
000001d0: d734 5c3d cd43 87bd 121c 133e d95e 573e
000001e0: 58ec b33d 636b 2f3d bf40 b3bc 68ef 1b3c
000001f0: b9ed 9b3d de36 1dbb c54a b23b 2bac 27bd
00000200: 5280 56bd 0cb7 263d 1506 503d acb1 e4bc
00000210: 117b 533d ad59 4e3e 8f6e b13d adf5 c03d
00000220: 7e54 523d faad b63b d7e2 083d 99e6 5ebc
00000230: 14dc 80ba aaed 8abc 57b5 5abc 7bb0 9b3c
00000240: 38e0 e3ba 21be a0bb ddfe df3d 217e 323e
00000250: e755 bd3c 1ee7 fc3c 618e e43d 448f cf3d
00000260: 4e5f 343d c71d d83d e4e4 aa3c ad01 d23d
00000270: abc0 783d ef90 3c3b 57fa 8b3d 0cb0 823d
00000280: 3d13 263e 977d 983e 8604 8c3c d364 cb3d
00000290: f6d8 363d cb4b 273d cc74 183d 5461 bf3a
000002a0: d8d8 b83b 1115 4f3c d741 003d 4af5 203d
000002b0: 11da 643c 8d4a 063d 09f9 c63d 315a 983e
000002c0: 506e 7a3d 5ff5 92bc 4536 4cbd 9ff7 75bd
000002d0: 0130 87bc cea4 7ebd 05e3 b83c 96b6 863d
000002e0: 9a93 323d f61c f9bc 6ae0 943c 0e1a 52bd
000002f0: 9489 213e 35e3 6f3e e992 033c 896b 383e
00000300: 4d78 943d 442d d23c 244f 323d 72f4 4a3c
00000310: 224d 0e3b e183 573b f02e f9bc ddc6 303d
00000320: 3253 b23d 6e43 1bba 4e01 633d 178d 983e
00000330: a33c 983d 595b 913d ff17 28bc 6ad5 29be
00000340: cd4c 19bd 0e05 dcbd 62e8 8ebc 2e29 673d
00000350: 736d e5bd 4252 fbbd a767 be3d 1d45 323d
00000360: 3883 ed3b 5734 493e 3fb1 bfbd dbe4 8d3d
00000370: 24b6 023c 70c6 c9bb 93fd 013d 66a5 ad3c
00000380: b222 353d 1694 003d a374 41bd 358a 903d
00000390: 3677 0f3c ec78 92bd 7097 5d3d cf1c 433e
000003a0: 002a 41bc 54dd 173e f681 233d 51c7 86bd
000003b0: 4e6d e0bb 5715 2e3d c7ca 9d3c d053 893d
000003c0: d447 bebc a4a9 533d e6ac 333e d78c da3c
000003d0: cc0d 563c 897a 593d 3bb9 0abe 0167 af3d
000003e0: 1c87 183d a56e 94bb 681a ba3c 2d10 ab3c
000003f0: 28a1 31bc 376d a73c 48d3 36bc 60f4 183d

fc1.bias f4 [128]
-0.037241917 -0.010922268 -0.029888937 0.016316684 -0.11531804 -0.03949135 0.0045478726 -0.080779776
0.0006906293 0.025120743 0.032906186 -0.003459396 -0.05937643 -0.026186598 0.0087041855 0.017970905
-0.01747313 0.02557627 -0.016938724 0.02418095 -0.03666248 -0.033804383 -0.018449025 -0.06270488
-0.052378092 0.008803016 -0.031711478 -0.026349653 0.023449818 -0.05292507 0.010986676 0.052052706
-0.016928915 -0.052511573 -0.05156432 -0.08226127 -0.048036817 0.015516842 -0.04025314 0.03185871
-0.038860768 -0.025557363 -0.006728578 -0.044612728 0.03151952 0.0014170244 0.05470531 -0.06754061
0.014606476 -0.02596516 0.015513568 -0.07038932 -0.07183384 -0.050481025 0.13833886 -0.03626774
-0.037141353 0.001310382 -0.019685898 -0.026618507 -0.0032005743 -0.0352626 0.0063017607 0.026386168
0.005627573 0.02758942 -0.0024986812 -0.004436477 -0.09674298 -0.048592687 0.00012809377 -0.023515306
-0.04470963 0.037497096 -0.0074745296 0.0253137 -0.028473187 0.0019767003 -0.0532597 -0.05294319
-0.048778635 -0.07581966 -0.012855236 -0.051770046 -0.02893609 -0.004445011 0.023928367 -0.034709815
-0.06861574 -0.039344348 -0.05729318 -0.05325203 -0.021059163 -0.06879975 -0.03325687 -0.03588724
-0.032772508 -0.00431013 -0.004351583 0.019942483 -0.054289177 -0.00084739795 0.036964253 -0.009628965
-0.03231038 -0.057822596 0.017350715 0.028689513 0.023099743 0.0504405 -0.075118065 -0.053289227
-0.01832839 -0.08148792 -0.0021207815 -0.04041705 -0.015535099 -0.0689827 -0.058965504 -0.064669855
0.038968112 -0.033211164 0.0045030424 -0.04958973 -0.015982825 0.051462304 0.12596835 -0.004135516
00000000: fb8a 18bd 50f3 32bc a5d9 f4bc 91aa 853c
00000010: dd2b ecbd afc1 21bd 5206 953b de6f a5bd
00000020: 590b 353a 04ca cd3c a3c8 063d 09b7 62bb
00000030: b334 73bd 4785 d6bc 009c 0e3c b837 933c
00000040: cf23 8fbc 5385 d13c 14c3 8abc 2117 c63c
00000050: 662b 16bd 7776 0abd 6922 97bc 6b6b 80bd
00000060: 698a 56bd 863a 103c e5e3 01bd 3adb d7bc
00000070: d519 c03c f5c7 58bd 7601 343c 3835 553d
00000080: 82ae 8abc 6016 57bd 1c35 53bd 9978 a8bd
00000090: 41c2 44bd 5a3a 7e3c 7ae0 24bd 477e 023d
000000a0: 782c 1fbd ad5d d1bc 677b dcbb d6bb 36bd
000000b0: 9d1a 013d 73bb b93a ad12 603d bb52 8abd
000000c0: 0050 6f3c e3b4 d4bc 9f2c 7e3c 4728 90bd
000000d0: 9f1d 93bd 31c5 4ebd b4a8 0d3e 7b8d 14bd
000000e0: 8821 18bd 20c1 ab3a 5244 a1bc 0e0f dabc
000000f0: bac0 51bb 846f 10bd 007f ce3b ce27 d83c
00000100: 8167 b83b 3503 e23c eac0 23bb de5f 91bb
00000110: 2f21 c6bd 2009 47bd e950 0639 2ca3 c0bc
00000120: 7221 37bd 8e96 193d e6ec f4bb ad5e cf3c
00000130: 9a40 e9bc 878b 013b d826 5abd f5da 58bd
00000140: 1bcc 47bd 5747 9bbd c59e 52bc d40c 54bd
00000150: 610b edbc 74a7 91bb 6c05 c43c e12b 0ebd
00000160: 6986 8cbd 8a27 21bd 41ac 6abd cd1e 5abd
00000170: 4484 acbc e2e6 8cbd 5b38 08bd 80fe 12bd
00000180: 773c 06bd fe3b 8dbb b997 8ebb 6b5e a33c
00000190: 545e 5ebd ea23 5eba d467 173d cec2 1dbc
000001a0: e457 04bd 63d7 6cbd 1623 8e3c 4506 eb3c
000001b0: ac3b bd3c b39a 4e3d 80d7 99bd ce45 5abd
000001c0: 6b25 96bc 23e3 a6bd cffc 0abb 598c 25bd
000001d0: ee86 7ebc cd46 8dbd d085 71bd a171 84bd
000001e0: 079d 1f3d 6e08 08bd 428e 933b 9a1e 4bbd
000001f0: 6aee 82bc 23ca 523d d9fd 003e 3983 87bb

fc2.weight f4 [64, 128]
-0.04785028 -0.060724337 -0.00815465 0.0209423 0.03514029 -0.0804009 -0.029410172 0.05646591
-0.26074788 -0.20745417 -0.11906088 -0.048157275 0.040491305 0.23215462 0.059277568 -0.12980554
0.053135596 -0.13504457 -0.028660685 -0.26066205 0.0035587996 -0.061284542 0.039148137 -0.017313167
-0.023793519 0.18266813 -0.031792562 0.09969307 0.19995 -0.0021555447 -0.15324536 -0.20710194
0.040628113 0.040945858 -0.029155677 0.20431854 0.115914784 -0.113272935 -0.18068826 0.15176606
0.048691574 0.113880105 -0.0844731 0.33621192 0.088156246 0.086938374 0.18418267 0.16941617
0.15888532 0.13873363 0.014204101 0.04946582 0.2455217 0.013216996 0.08389537 -0.06762148
0.011745755 -0.18685272 0.13356216 -0.07594835 0.07087274 -0.03922595 0.085150674 -0.03935479
0.06397332 -0.038123935 -0.044553712 -0.061823145 0.17842074 0.064453855 -0.015287935 0.005653848
0.10445561 0.0025665553 0.030602442 0.057773616 0.06690354 0.03647272 -0.027085887 -0.041477315
-0.13863494 0.11433968 -0.0203968 0.016074196 0.07964946 -0.25679094 -0.25721782 0.005603021
0.01402961 -0.053410254 0.096055746 0.034987416 -0.05061646 0.12686826 -0.011342107 0.1459847
0.15624179 -0.037108816 0.02713544 0.034715354 0.060113203 -0.040202234 -0.28993025 0.17664145
0.08817504 -0.05397465 -0.16150847 -0.011001002 -0.028956547 0.013287452 0.10594929 -0.1527872
0.06467622 0.002617316 -0.023100685 0.08094225 0.009040833 0.094658576 0.0480529 -0.035424836
-0.056618202 0.23934084 0.18012816 -0.054399982 -0.03680324 -0.063684955 -0.23230122 0.03300869
0.049321763 -0.084947005 0.11365397 0.033052176 -0.063166335 -0.09498463 -0.0030154015 -0.15031299
-0.18391402 0.18159367 0.16025722 0.0030001514 0.12285651 -0.3207527 0.10498757 -0.015866712
-0.14738704 -0.0018716704 -0.049385868 -0.30737394 -0.21897197 0.08825197 -0.01813436 -0.16421703
0.05032194 0.17064059 -0.016415125 0.11888868 0.050511092 0.023001086 0.05792152 0.059118483
0.16559784 -0.24839912 -0.0047785384 -0.21746476 0.13200405 0.10002974 -0.154957 0.012522587
-0.019851228 -0.029034011 0.04990815 0.09609212 0.19337682 0.034294143 -0.21112803 -0.12596302
-0.06366578 -0.10218304 0.09963016 0.1236818 -0.118970685 0.0067906054 0.05230109 0.054221738
0.07348688 -0.026248563 -0.015789062 -0.2524395 0.07330735 -0.14537993 -0.46120086 0.043388817
0.11428843 0.03778043 0.0374449 -0.07475884 -0.2802651 -0.085306615 0.087072626 0.08051268
0.042715136 0.14001232 0.07139162 0.12832 -0.068760976 -0.054429766 -0.12728553 -0.06321871
-0.23631483 0.1442232 -0.10652342 0.023531565 0.06854578 0.046577517 0.058080215 -0.2273565
0.04761507 0.0710379 0.07499136 -0.091594726 0.07960388 -0.121865325 -0.05591973 -0.27457666
-0.055374112 0.012096069 -0.041799035 0.12267768 -0.0110893035 -0.027009448 0.21029927 0.008808183
0.09898036 -0.14230615 -0.026542947 0.09535985 0.11972403 -0.052613944 -0.0013793928 -0.18170214
-0.08685783 -0.02801899 0.0041108388 -0.11569 0.03719332 -0.026676208 -0.07484821 -0.14147462
0.19312452 -0.00044056668 -0.02980266 -0.041305214 -0.06534067 0.16478461 0.25388762 0.10394008
00000000: a8fe 43bd 15ba 78bd 159b 05bc 308f ab3c
00000010: 44ef 0f3d 3aa9 a4bd 9aed f0bc cc48 673d
00000020: bf80 85be de6e 54be 31d6 f3bd 9040 45bd
00000030: 36da 253d f1b9 6d3e 09cd 723d beeb 04be
00000040: b6a4 593d 2049 0abe d0c9 eabc 7f75 85be
00000050: c03a 693b 8005 7bbd cc59 203d 58d4 8dbc
00000060: a0ea c2bc 5b0d 3b3e eb38 02bd e12b cc3d
00000070: b1bf 4c3e 0a44 0dbb 5aec 1cbe 8812 54be
00000080: aa69 263d d8b6 273d e3d7 eebc e138 513e
00000090: bb64 ed3d a4fb e7bd 5806 39be 9068 1b3e
000000a0: d170 473d f939 e93d 3c00 adbd f823 ac3e
000000b0: 438b b43d bf0c b23d 629a 3c3e 6f7b 2d3e
000000c0: d5b2 223e 3010 0e3e 51b8 683c ac9c 4a3d
000000d0: 0a6a 7b3e 198c 583c 56d1 ab3d 217d 8abd
000000e0: 4471 403c 5256 3fbe 85c4 083e cf8a 9bbd
000000f0: ba25 913d 64ab 20bd 7a63 ae3d 7d32 21bd
00000100: 7204 833d d827 1cbd f47d 36bd 443a 7dbd
00000110: edb3 363e 6200 843d 3f7a 7abc ea43 b93b
00000120: d3ec d53d a733 283b f9b1 fa3c 07a4 6c3d
00000130: b904 893d 6b64 153d 39e3 ddbc 1ee4 29bd
00000140: 51f6 0dbe ec2a ea3d 3117 a7bc 08ae 833c
00000150: 421f a33d 1a7a 83be 0eb2 83be 8c99 b73b
00000160: 73dc 653c b6c4 5abd e0b8 c43d f74e 0f3d
00000170: 3553 4fbd c1e9 013e 3fd4 39bc 037d 153e
00000180: d9fd 1f3e 6aff 17bd 244b de3c b031 0e3d
00000190: 4339 763d 19ab 24bd bd71 94be 7fe1 343e
000001a0: 1e95 b43d 8614 5dbd 7a62 25be 8c3d 34bc
000001b0: 4836 edbc 9db3 593c f1fb d83d 3f74 1cbe
000001c0: f774 843d 4787 2b3b a63d bdbc 0dc5 a53d
000001d0: 0120 143c 5bdc c13d 1ed3 443d a219 11bd
000001e0: 7de8 67bd c415 753e 8473 383e 84d2 5ebd
000001f0: ffbe 16bd 426d 82bd 5fe0 6dbe 1f34 073d
00000200: 9e05 4a3d b2f8 adbd 6ac3 e83d b861 073d
00000210: 5a5d 81bd 4d87 c2bd 0b9e 45bb a6eb 19be
00000220: f553 3cbe b1f3 393e 781a 243e 309e 443b
00000230: 329c fb3d b339 a4be b903 d73d e8fa 81bc
00000240: a1ec 16be d652 f5ba d648 4abd 1e60 9dbe
00000250: 303a 60be 73bd b43d 828e 94bc 8228 28be
00000260: 611e 4e3d 68bc 2e3e 0379 86bc e97b f33d
00000270: b8e4 4e3d c66c bc3c 1e3f 6d3d 3926 723d
00000280: 7b92 293e 575c 7ebe 4995 9cbb 15af 5ebe
00000290: 122c 073e 64dc cc3d 0cad 1ebe 892b 4d3c
000002a0: 0b9f a2bc bcd8 edbc 7d6c 4c3d f2cb c43d
000002b0: 9304 463e 0478 0c3d f231 58be 73fc 00be
000002c0: 3463 82bd 5745 d1bd e60a cc3d e24c fd3d
000002d0: e7a6 f3bd ba83 de3b ab39 563d 9d17 5e3d
000002e0: 4a80 963d 3a07 d7bc 1058 81bc c03f 81be
000002f0: 2a22 963d 7ade 14be 8522 ecbe 79b8 313d
00000300: 0d10 ea3d a7bf 1a3d d35f 193d 2a1b 99bd
00000310: e87e 8fbe 3cb5 aebd 2253 b23d d5e3 a43d
00000320: 11f6 2e3d 645f 0f3e c535 923d 5166 033e
00000330: 8ed2 8cbd bff1 5ebd 2357 02be d078 81bd
00000340: 84fc 71be 3faf 133e f328 dabd 45c5 c03c
00000350: bb61 8c3d 11c8 3e3d 85e5 6d3d 24d0 68be
00000360: 0508 433d 527c 913d 1295 993d 0496 bbbd
00000370: 5c07 a33d 8794 f9bd 160c 65bd 5095 8cbe
00000380: f7cf 62bd 972e 463c 7735 2bbd 6f3e fb3d
00000390: e9af 35bc eb42 ddbc b158 573e 3250 103c
000003a0: 37b6 ca3d b4b8 11be 9870 d9bc 064c c33d
000003b0: df31 f53d b881 57bd becc b4ba 2010 3abe
000003c0: 85e2 b1bd 1588 e5bc 37b4 863b e1ee ecbd
000003d0: 0658 183d 1088 dabc 054a 99bd b9de 10be
000003e0: 6fc2 453e dcfb e6b9 b524 f4bc a82f 29bd
000003f0: 54d1 85bd 4cbd 283e 8ffd 813e 89de d43d

fc2.bias f4 [64]
-0.08774616 0.073817 -0.046391204 0.13336976 -0.23129843 0.08641445 -0.10652769 0.020055443
-0.022552207 -0.072185494 -0.04827004 -0.0134401005 0.14235441 -0.11324719 0.04529504 0.06917158
-0.099040344 -0.020196144 0.14221148 0.13252865 -0.026905373 -0.0608987 0.09320465 0.017801072
0.058028314 -0.13304628 0.020248536 0.20788199 0.028968526 0.02571035 -0.034750696 0.10438318
0.04223065 -0.04278009 0.032064117 -0.031688724 0.057639167 0.17999549 -0.07077778 0.097561434
-0.06431681 -0.021500539 0.011172945 0.10359764 0.009366042 -0.040106338 0.053990852 -0.05607377
0.1256664 -0.038422767 0.03622572 -0.03987103 0.08056045 0.04323308 0.037067775 0.09605497
-0.08976567 0.099618584 0.12717368 0.12239022 0.038997624 0.118920654 0.039650574 0.03876745
00000000: 42b4 b3bd 5e2d 973d b404 3ebd 1592 083e
00000010: 7fd9 6cbe 0ffa b03d 312b dabd 504b a43c
00000020: 68bf b8bc fdd5 93bd ceb6 45bd de33 5cbc
00000030: 5bc5 113e 25ee e7bd 4b87 393d d4a9 8d3d
00000040: aad5 cabd 6272 a5bc e39f 113e 97b5 073e
00000050: a868 dcbc ea70 79bd 14e2 be3d 8ed3 913c
00000060: 19af 6d3d 493d 08be 42e0 a53c 04df 543e
00000070: 674f ed3c 839e d23c bf56 0ebd d9c6 d53d
00000080: 0cfa 2c3d 2d3a 2fbd aa55 033d 09cc 01bd
00000090: 0c17 6c3d bd50 383e f1f3 90bd 4ace c73d
000000a0: 88b8 83bd e621 b0bc ba0e 373c 002b d43d
000000b0: 0774 193c 8b46 24bd 8325 5d3d 9cad 65bd
000000c0: b1ae 003e 3161 1dbd 6c61 143d ce4f 23bd
000000d0: e1fc a43d 2c15 313d 61d4 173d 78b8 c43d
000000e0: 10d7 b7bd d404 cc3d d139 023e b9a7 fa3d
000000f0: f9bb 1f3d ac8c f33d a468 223d 9eca 1e3d

fc3.weight f4 [10, 64]
-0.021003785 -0.14091624 0.15630433 0.034279287 -0.04605263 0.08847802 0.119398944 0.08457949
-0.17796193 0.051408682 -0.1486523 -0.14314161 -0.10053946 -0.03561647 0.0001810551 -0.0064652064
0.13101277 -0.28785378 -0.082489714 -0.1578764 0.022021128 0.11568446 0.04478391 -0.12575084
-0.013520696 0.15871039 0.12398889 -0.18945073 -0.018507056 -0.19597691 -0.085957915 0.00893883
0.027390294 -0.20627736 0.04260471 -0.022634942 0.10491092 -0.054778364 0.0625063 0.05799274
0.099569544 -0.051830955 -0.42119187 0.13978755 -0.21440598 0.25357324 -0.1108941 0.22405377
-0.15239307 0.15821262 -0.0038665205 -0.032365594 0.14414541 -0.048150055 -0.1076621 -0.19654983
0.07960416 0.056803063 0.0091131 0.05522369 -0.12631087 -0.0650953 0.00017005956 0.080898754
0.033057123 -0.13100357 0.06880658 -0.14039184 0.26785904 -0.08934623 0.032838188 -0.22517425
-0.11799608 -0.15108079 -0.016163528 -0.18233445 0.36311355 0.034874942 -0.11784 0.08807315
0.18547356 0.09724061 -0.2521801 -0.35133162 -0.1497304 0.015104977 -0.15726447 0.030700361
-0.052318472 -0.004557971 -0.27527997 0.014847817 0.0917692 0.040315706 -0.032037053 -0.30101937
-0.039092205 -0.07190651 -0.26089424 0.016056981 -0.36915335 -0.011209613 -0.19646794 -0.14449412
0.034846645 -0.22579081 0.19876054 -0.24739991 0.008787104 0.058737315 0.24033481 0.11465476
0.11236256 0.10026298 0.041310124 0.09616226 -0.2340007 0.11111758 -0.3276322 -0.28442684
0.06989626 0.09748299 -0.43576488 -0.10453565 -0.39896575 0.29874384 0.12842084 0.10743972
-0.016435733 -0.19552824 -0.02465797 0.15251158 0.13972342 0.06297845 -0.19058076 0.13570127
-0.19546656 -0.08540654 -0.18579079 -0.15260844 -0.078753084 -0.2155499 0.113209344 0.08164235
-0.093233265 -0.17092189 0.0026382045 -0.11674488 -0.022422755 -0.07583482 -0.16874066 -0.093083136
-0.04660131 -0.116187364 0.04146383 -0.048765387 -0.10146334 -0.13715176 -0.034333672 -0.013092784
0.08207614 0.050067175 -0.1702281 -0.059489828 0.023995813 0.14021659 -0.1914043 0.115934655
0.10430162 -0.105892256 0.011607434 0.13357805 0.031232597 -0.18981144 -0.055241745 -0.25034985
-0.11215405 -0.2464288 -0.024344688 0.1452173 0.10688526 -0.11299247 0.20773268 0.10955162
-0.28787416 -0.21051961 -0.29380384 -0.12366 0.08372662 0.11431388 0.0001581672 -0.15168674
0.18215269 -0.23491274 0.16139695 -0.049257994 -0.28875086 -0.21078008 -0.107987255 0.1119558
-0.046051387 -0.03480196 -0.1770883 -0.11469506 0.35204458 -0.17680874 0.11775208 0.054790407
-0.18082108 0.18674801 0.1405087 0.031265423 -0.055171054 0.031125195 -0.3571375 -0.0108322045
-0.37939233 0.09075816 0.003581895 0.11523 -0.035466127 0.07340135 0.10107269 -0.18700755
0.11693317 -0.0031637843 -0.024388291 -0.1334018 0.05423584 0.06654164 0.048844337 -0.1664292
-0.096885085 0.018024553 -0.18375209 0.098760284 -0.06696514 -0.3564514 0.0005356615 -0.016399404
0.23038256 -0.08165309 0.13336016 -0.15127212 -0.12900461 0.07617443 -0.43546873 -0.009916213
-0.040576294 0.06916283 -0.15859258 -0.19333832 -0.0061119944 -0.108845375 0.015275007 0.07798707
00000000: 2110 acbc 594c 10be 3e0e 203e 7068 0c3d
00000010: afa1 3cbd f733 b53d 6f87 f43d 0338 ad3d
00000020: a73b 36be e991 523d 4f38 18be b793 12be
00000030: a2e7 cdbd 93e2 11bd 9cd9 3d39 15da d3bb
00000040: 3628 063e 9261 93be 5ef0 a8bd 5aaa 21be
00000050: a765 b43c f9eb ec3d 556f 373d d4c4 00be
00000060: e985 5dbc fa84 223e e3ed fd3d 5fff 41be
00000070: 1c9c 97bc 2cae 48be b40a b0bd 2c74 123c
00000080: 9c61 e03c 5f3a 53be 4782 2e3d ea6c b9bc
00000090: 89db d63d 475f 60bd 4e03 803d cc89 6d3d
000000a0: 1eeb cb3d b24c 54bd 76a6 d7be 7824 0f3e
000000b0: 3e8d 5bbe 5ad4 813e 721c e3bd 5a6e 653e
000000c0: ee0c 1cbe 7d02 223e 7365 7dbb c991 04bd
000000d0: db9a 133e fe38 45bd f27d dcbd 5c44 49be
000000e0: 8107 a33d 54aa 683d 1d4f 153c 3c32 623d
000000f0: a357 01be af50 85bd 0452 3239 3fae a53d
00000100: e866 073d cd25 06be 77ea 8c3d e1c2 0fbe
00000110: d224 893e 28fb b6bd 5681 063d 1494 66be
00000120: eea7 f1bd ecb4 1abe 6069 84bc e2b5 3abe
00000130: 05ea b93e 07d9 0e3d 1956 f1bd b25f b43d
00000140: c8ec 3d3e 1626 c73d c01d 81be bde1 b3be
00000150: ed52 19be de7a 773c f009 21be 537f fb3c
00000160: e54b 56bd 085b 95bb 7ff1 8cbe 4244 733c
00000170: 7ef1 bb3d 1522 253d 4939 03bd 361f 9abe
00000180: 261f 20bd b843 93bd ee93 85be ee89 833c
00000190: ab01 bdbe 86a8 37bc e42e 49be 44f6 13be
000001a0: 5bbb 0e3d b535 67be e287 4b3e 6756 7dbe
000001b0: c9f7 0f3c 8a96 703d 541a 763e 1dd0 ea3d
000001c0: 581e e63d ad56 cd3d ce34 293d b8f0 c43d
000001d0: e19d 6fbe 9d91 e33d 68bf a7be 65a0 91be
000001e0: c525 8f3d 29a5 c73d 931c dfbe c916 d6bd
000001f0: 3d45 ccbe f4f4 983e c180 033e 5b09 dc3d
00000200: 3ba4 86bc 8e38 48be 83ff c9bc ff2b 1c3e
00000210: a813 0f3e d8fa 803d 9a27 43be 46f5 0a3e
00000220: 6328 48be a0e9 aebd f13f 3ebe 6345 1cbe
00000230: 4c49 a1bd 1db9 5cbe 4dda e73d 1b34 a73d
00000240: 15f1 bebd 2606 2fbe bae5 2c3b f117 efbd
00000250: edaf b7bc 494f 9bbd 5aca 2cbe 5fa2 bebd
00000260: 04e1 3ebd a4f3 edbd fad5 293d 37be 47bd
00000270: 03cc cfbd 8371 0cbe 77a1 0cbd 1e83 56bc
00000280: 8917 a83d 3d13 4d3d 4650 2ebe 9bab 73bd
00000290: de92 c43c f094 0f3e 7dff 43be 266f ed3d
000002a0: 169c d53d 0ade d8bd 1b2d 3e3c afc8 083e
000002b0: 81db ff3c ee5d 42be 2b45 62bd db2d 80be
000002c0: 06b1 e5bd d557 7cbe 836e c7bc d8b3 143e
000002d0: a9e6 da3d 9968 e7bd e0b7 543e 9a5c e03d
000002e0: 3e64 93be 7492 57be 756d 96be 7441 fdbd
000002f0: dd78 ab3d 651d ea3d afd9 2539 c553 1bbe
00000300: 3c86 3a3e f78c 70be 3e45 253e c0c2 49bd
00000310: 27d7 93be bcd6 57be 6c28 ddbd 1549 e53d
00000320: 61a0 3cbd 808c 0ebd a356 35be 3ee5 eabd
00000330: 303f b43e 5a0d 35be 0128 f13d e86b 603d
00000340: 2929 39be df3a 3f3e 83e1 0f3e 2c10 003d
00000350: 0bfb 61bd 44fa fe3c bada b6be 8f79 31bc
00000360: b63f c2be 6adf b93d 3abe 6a3b b5fd eb3d
00000370: ee44 11bd 7253 963d 33ff ce3d e87e 3fbe
00000380: a87a ef3d 7e57 4fbb f4c9 c7bc 7b9a 08be
00000390: 6626 5e3d fc46 883d 0011 483d 6b6c 2abe
000003a0: b06b c6bd 3aa8 933c 8229 3cbe d542 ca3d
000003b0: 0525 89bd cc80 b6be a26b 0c3a 0b58 86bc
000003c0: 68e9 6b3e bc39 a7bd 918f 083e 14e7 1abe
000003d0: c919 04be 5701 9c3d c2f5 debe 9d77 22bc
000003e0: 5433 26bd 3ea5 8d3d 1866 22be 7bfa 45be
000003f0: 2047 c8bb 53ea debd 0644 7a3c afb7 9f3d

fc3.bias f4 [10]
-0.14048524 -0.095151894 0.081602566 -0.06082505 0.019905908 -0.04265838 0.09612589 0.1259946
-0.04141524 -0.11286804
00000000: 5ddb 0fbe ffde c2bd 3f1f a73d b023 79bd
00000010: b711 a33c 8eba 2ebd a7dd c43d ba04 013e
00000020: 07a3 29bd 5c27 e7bd
