training/mlruns/737694674622074143/c09a656b6f624a72b6897ad6dcb7c122/model_artifact/model.pth (torch, 439732 bytes, 6 tensors)

fc1.weight f4 [128, 784]
0.03869167 0.053234916 0.071999885 0.076325186 0.019009952 0.074653514 0.06643267 0.0864415
0.056840945 0.022722205 0.05368309 0.08805902 0.006000605 0.14115717 0.055114653 0.07908364
0.18558727 0.13807982 0.029970521 0.05927788 0.09779493 0.09417161 0.059089437 0.06468431
0.030744402 0.054936413 0.042134445 0.045975033 0.058362395 0.026621522 0.038535234 0.06968311
0.053168453 0.05814504 0.052756216 -0.03620787 0.030322464 0.14763296 0.0316339 0.03396044
-0.03834878 0.07322888 0.07757885 0.012629245 -0.09301461 -0.0517861 0.2058433 0.27142346
-0.011042042 0.082355976 0.07475426 0.035977628 0.07770462 0.069042586 0.059918087 0.025532098
0.04100892 0.034331754 0.04587701 0.050784577 0.056749556 0.054878913 -0.070075385 -0.075142525
-0.0019020272 0.06702777 -0.09904824 -0.039199296 -0.1718875 -0.112614706 -0.04239521 -0.032556474
-0.17579228 -0.014981243 0.09319093 0.09903323 -0.0049093524 -0.030681707 0.018982632 0.073649265
0.070232525 0.022709208 0.056376595 0.03153696 0.022518802 0.044478185 0.08853305 0.03830262
0.049473878 0.020466408 -0.039228488 -0.00049628626 -0.063690536 0.22102082 0.101054035 -0.014966109
0.064978644 0.20467326 0.1644917 0.12757969 0.054797933 0.11235994 0.31802657 0.119366854
-0.04213412 -0.009890577 -0.028364606 0.0452444 0.07853779 0.0968754 0.062371265 0.08280672
0.04426292 0.032536842 0.017917147 0.08597039 0.041914724 -0.036745306 -0.03229229 -0.15127654
0.009578775 0.15046433 0.10531007 -0.027573675 -0.038004797 0.15025501 0.12660566 0.08290807
0.005994394 0.11002805 0.16004544 0.21348217 -0.10602393 -0.029441306 -0.07206485 0.00901243
0.05499263 0.071745194 0.0152231 0.037468508 0.081353776 0.062036607 0.0599234 0.015628647
-0.008936713 -0.011575615 -0.0737054 -0.15266648 0.041691966 0.14947657 0.10972878 0.054529067
-0.100338 0.089256376 0.10941474 0.0781759 0.010401783 0.2251167 0.14082034 0.07415412
-0.16272858 -0.21106724 -0.08910423 -0.02405215 0.04175795 0.07098217 0.04212378 0.02236496
0.023655586 0.072674565 0.07395283 0.02654054 -0.012450603 -0.13347025 -0.037976068 -0.19968271
0.013646899 0.22989695 0.12306409 0.1511093 -0.057378646 -0.009182448 -0.014982525 0.0022747742
0.13624395 0.025339914 0.08641058 0.20492874 -0.013031317 -0.18430597 -0.069017045 -0.05151155
0.04060573 0.064609684 0.032623857 0.07047599 0.02205953 0.056611475 0.030761266 0.034906194
-0.08694201 -0.16758163 -0.05733849 -0.17192146 0.0033731675 0.22147384 -0.032819096 0.008781488
0.089318715 0.103239305 0.0012316237 0.0069868313 0.048445765 -0.067173444 0.02847235 0.24132323
0.04247319 -0.12028168 -0.06067317 -0.14828853 -0.0318619 0.07567883 0.015517001 0.023964703
0.03279936 0.055152263 0.016461529 -0.044061087 -0.030820785 -0.15528241 0.015070849 -0.15526588
-0.0069297426 0.1139623 -0.062581375 -0.08040376 -0.008461162 0.1675378 -0.0009471227 -0.0412653
-0.23787463 -0.2546742 -0.0041755936 0.17162077 -0.03646063 -0.024663646 -0.030245557 -0.15557006
-0.015353429 0.036313195 0.021373333 0.053913616 0.03468619 0.0119276885 0.0053585083 -0.06363489
00000000: 287b 1e3d db0c 5a3d ad74 933d 6150 9c3d
00000010: c2ba 9b3c f1e3 983d da0d 883d 3e08 b13d
00000020: 0dd2 683d eb23 ba3c cde2 5b3d 4a58 b43d
00000030: b9a0 c43b 818b 103e e7bf 613d 9af6 a13d
00000040: 970a 3e3e cc64 0d3e bd84 f53c 5dcd 723d
00000050: b548 c83d 0cdd c03d c407 723d 3579 843d
00000060: afdb fb3c 0105 613d 2b95 2c3d 5150 3c3d
00000070: 680d 6f3d 6115 da3c 1fd7 1d3d 05b6 8e3d
00000080: 2ac7 593d 7e29 6e3d e716 583d b44e 14bd
00000090: d166 f83c 182d 173e 8c92 013d 1a1a 0b3d
000000a0: 9c13 1dbd 06f9 953d a9e1 9e3d e5ea 4e3c
000000b0: 727e bebd a91d 54bd 96c8 523e 04f8 8a3e
000000c0: aee9 34bc 40aa a83d c318 993d 475d 133d
000000d0: 9a23 9f3d 3366 8d3d ab6c 753d b128 d13c
000000e0: f8f8 273d 749f 0c3d 88e9 3b3d 7d03 503d
000000f0: 3972 683d b6c8 603d af83 8fbd 53e4 99bd
00000100: 714d f9ba db45 893d ced9 cabd 718f 20bd
00000110: 4703 30be 8aa2 e6bd 9aa6 2dbd f059 05bd
00000120: e402 34be e373 75bc e3da be3d efd1 ca3d
00000130: a2de a0bb 3458 fbbc 7781 9b3c 6dd5 963d
00000140: 12d6 8f3d a908 ba3c 25eb 663d e62c 013d
00000150: 5a79 b83c c22e 363d d150 b53d 35e3 1c3d
00000160: 1fa5 4a3d 2ba9 a73c 0dae 20bd 3519 02ba
00000170: 2f70 82bd 4853 623e 6bf5 ce3d 6934 75bc
00000180: 8613 853d de95 513e 8370 283e 40a4 023e
00000190: cc73 603d f81c e63d 61d4 a23e 9c76 f43d
000001a0: d494 2cbd 160c 22bc e45c e8bc 3152 393d
000001b0: 6cd8 a03d 9c66 c63d 0379 7f3d 9296 a93d
000001c0: 094d 353d 5a45 053d fbc6 923c 3e11 b03d
000001d0: c6ae 2b3d 3f82 16bd ec44 04bd 3de8 1abe
000001e0: 4bf0 1c3c 5213 1a3e ceac d73d 30e2 e1bc
000001f0: ebaa 1bbd 73dc 193e eaa4 013e b5cb a93d
00000200: 9f6c c43b 6356 e13d f4e2 233e 129b 5a3e
00000210: 1323 d9bd e52e f1bc bc96 93bd dfa8 133c
00000220: f43f 613d 25ef 923d 4f6a 793c 9478 193d
00000230: cf9c a63d 191a 7e3d 3d72 753d a607 803c
00000240: 4b6b 12bc a6a7 3dbc dbf2 96bd 9a54 1cbe
00000250: 32c5 2a3d 6310 193e 7cb9 e03d df59 5f3d
00000260: 027e cdbd 0ccc b63d d614 e03d b01a a03d
00000270: 3d6c 2a3c fe84 663e 3533 103e 1ede 973d
00000280: 52a2 26be 0322 58be 477c b6bd 0409 c5bc
00000290: 620a 2b3d 1a5f 913d fc89 2c3d b836 b73c
000002a0: 5cc9 c13c 67d6 943d 9574 973d 8c6b d93c
000002b0: 9dfd 4bbc 6dac 08be cb8c 1bbd a079 4cbe
000002c0: 3e97 5f3c 1b6a 6b3e 0709 fc3d 65bc 1a3e
000002d0: df05 6bbd fa71 16bc 4479 75bc 6114 153b
000002e0: 8983 0b3e a795 cf3c 08f8 b03d d7d8 513e
000002f0: 4e81 55bc b4ba 3cbe cf58 8dbd c6fd 52bd
00000300: 3252 263d 1552 843d 98a0 053d b755 903d
00000310: 30b6 b43c 6fe1 673d 0dff fb3c ccf9 0e3d
00000320: a70e b2bd 859a 2bbe c4db 6abd 2e0c 30be
00000330: 5c10 5d3b 0aca 623e 516d 06bd 3be0 0f3c
00000340: bbec b63d 216f d33d 6f6e a13a caf1 e43b
00000350: 116f 463d 3b92 89bd d93e e93c 701d 773e
00000360: 5ef8 2d3d 3e56 f6bd 6e84 78bd f3d8 17be
00000370: a081 02bd 81fd 9a3d 053b 7e3c a051 c43c
00000380: 9f58 063d 57e7 613d 54da 863c 6679 34bd
00000390: df7b fcbc 5a02 1fbe b9eb 763c 05fe 1ebe
000003a0: e512 e3bb 1165 e93d aa2a 80bd baaa a4bd
000003b0: b0a0 0abc 078f 2b3e 5448 78ba ce05 29bd
000003c0: 6895 73be a864 82be 6bd3 88bb 5bbd 2f3e
000003d0: be57 15bd 6a0b cabc 88c5 f7bc c24d 1fbe
000003e0: f38c 7bbc 25bd 143d 2117 af3c 86d4 5c3d
000003f0: 1b13 0e3d 5a6c 433c 6d96 af3b 0253 82bd

fc1.bias f4 [128]
-0.068243824 -0.00015009964 -0.082174666 -0.015699849 0.02999338 -0.022533134 -0.022809822 -0.06509565
-0.024704915 0.03080525 -0.013266483 -0.09549775 -0.036939934 0.005425103 -0.04303199 0.01465843
-0.049080346 -0.057472024 -0.026658032 0.038510796 0.023145039 -0.02831848 0.0036138946 -0.03951979
0.042641822 -0.032468624 -0.0055542667 -0.06177782 -0.016673574 0.010766929 0.05594018 -0.047694907
0.053311307 -0.007156875 -0.04226521 -0.011815936 -0.07330755 -0.008357152 0.011358554 0.018731127
-0.03115267 -0.039413597 -0.016096411 0.03409818 -0.05407303 0.026731776 -0.06073168 0.030299036
-0.048416723 -0.02973623 -0.045928903 -0.045268055 0.0339175 0.013126731 -0.022620434 -0.027992588
0.037225727 -0.049552687 -0.06722686 -0.00673202 -0.033379465 0.03702998 -0.027685206 0.013647863
-0.007410325 0.025462802 0.032943666 -0.05657273 0.005335241 -0.077709116 0.06510797 0.02881194
0.049531903 0.07202551 -0.0069355164 0.04034514 -0.069389746 0.0047945874 0.012100961 -0.024309443
0.021618076 -0.02153992 -0.009173755 -0.0019877912 0.020407807 -0.018945618 -0.04627667 0.032035775
-0.020605654 -0.014199071 0.021010952 0.0026955511 0.030749304 -0.047404695 -0.03295871 -0.039682686
0.00308696 -0.008233351 -0.044631097 -0.053175185 -0.07724605 -0.045731165 -0.06192305 0.049532384
-0.030750642 -0.10880068 0.047888286 -0.019073727 -0.052629165 -0.015942141 -0.050076786 -0.045435082
0.09586208 -0.047682855 -0.026507383 0.05284763 0.024213623 0.029331295 -0.0022243478 -0.0640203
0.03383175 -0.0068200002 0.08711335 -0.019574357 0.01823126 -0.010982324 -0.04463939 -0.07357895
00000000: 6bc3 8bbd 1164 1db9 314b a8bd f89c 80bc
00000010: adb4 f53c 6897 b8bc aadb babc de50 85bd
00000020: f661 cabc 4b5b fc3c aa5b 59bc 5394 c3bd
00000030: 544e 17bd 10c5 b13b 5042 30bd e929 703c
00000040: 7908 49bd c967 6bbd f261 dabc 7fbd 1d3d
00000050: aa9a bd3c 28fc e7bc 17d7 6c3b 81df 21bd
00000060: 31a9 2e3d d2fd 04bd 9100 b6bb bd0a 7dbd
00000070: 0597 88bc c667 303c 8821 653d bc5b 43bd
00000080: f55c 5a3d 3884 eabb 491e 2dbd a197 41bc
00000090: 4522 96bd 70ec 08bc 3a19 3a3c 0572 993c
000000a0: e233 ffbc 2770 21bd 9fdc 83bc 88aa 0b3d
000000b0: ae7b 5dbd 99fc da3c c8c1 78bd af35 f83c
000000c0: 9d50 46bd 6599 f3bc f21f 3cbd ff6a 39bd
000000d0: 14ed 0a3d 8011 573c 7d4e b9bc b650 e5bc
000000e0: 017a 183d c2f7 4abd 3cae 89bd 4798 dcbb
000000f0: e8b8 08bd c0ac 173d 16cc e2bc 499b 5f3c
00000100: 50d2 f2bb 5e97 d03c f0ef 063d cfb8 67bd
00000110: 3fd3 ae3b f525 9fbd 5457 853d 0507 ec3c
00000120: f7e1 4a3d 1c82 933d 5443 e3bb f240 253d
00000130: 361c 8ebd ea1b 9d3b 1c43 463c 9924 c7bc
00000140: 6418 b13c 7c74 b0bc 844d 16bc 9a45 02bb
00000150: 462e a73c d733 9bbc 9b8c 3dbd f237 033d
00000160: 30cd a8bc 38a3 68bc 291f ac3c d8a7 303b
00000170: f7e5 fb3c 6d2b 42bd b6ff 06bd 508a 22bd
00000180: 984e 4a3b 2de5 06bc 19cf 36bd 39ce 59bd
00000190: 2d33 9ebd 9a50 3bbd 06a3 7dbd 78e2 4a3d
000001a0: c5e8 fbbc e4d2 debd 8226 443d 8140 9cbc
000001b0: ae91 57bd 1899 82bc 511d 4dbd 231a 3abd
000001c0: 5753 c43d 194f 43bd 0326 d9bc c276 583d
000001d0: a65b c63c 2f48 f03c 5dc6 11bb 131d 83bd
000001e0: 2993 0a3d 4f7a dfbb 7c68 b23d 675a a0bc
000001f0: b959 953c 35ef 33bc cbd7 36bd 8fb0 96bd

fc2.weight f4 [64, 128]
0.16853598 -0.04312651 -0.045933016 -0.18867686 0.067584604 0.028651906 0.13425419 -0.08446075
-0.06358446 -0.060930416 0.06969972 -0.119070515 0.028890057 0.050602973 -0.042680603 0.09545474
0.0527821 -0.081701435 0.0009258642 0.051337518 -0.20006412 0.08271636 -0.2090907 0.097414635
-0.1024248 -0.13322364 0.020888474 -0.044642165 0.021006841 -0.24382272 -0.24186313 0.01789445
0.09186912 -0.055134512 -0.026278496 0.123257145 0.009614915 0.058741875 -0.2613974 -0.042277798
0.0007702849 -0.04168187 -0.04975601 0.0838931 0.03674693 0.021692334 0.13088652 -0.043566212
-0.09085796 -0.114294276 -0.14147688 -0.054424927 -0.09554363 -0.20113188 -0.1458851 0.051915474
-0.055014875 0.096316054 0.09399681 -0.08385572 -0.017209953 -0.070516214 -0.026021019 -0.23659457
0.017549312 -0.13220389 0.09564488 0.08268327 -0.06061693 0.11472082 -0.029245786 0.015595257
0.16133714 0.009211123 0.053317063 0.13293329 0.018826215 -0.06279844 0.052644122 -0.15321466
0.08004918 0.08347855 0.0036001727 -0.12112314 -0.10554446 -0.0024567991 -0.0764279 -0.15021692
0.12641631 0.17198946 -0.2401497 0.2230545 0.10227447 0.053851258 0.19847164 0.1006125
0.33087054 0.15465587 -0.015999805 -0.07389335 -0.14207332 0.022005945 0.15629014 0.037005246
0.022101872 -0.1709692 0.24864781 0.14491048 -0.15075196 0.1627715 -0.005553192 0.211753
0.09576529 0.13333249 0.24992396 -0.15263537 -0.07875286 -0.30041617 0.13460684 0.10850358
-0.26465592 -0.03762655 0.07309642 0.0065774918 0.1842207 -0.13567612 -0.17590111 0.13954224
0.1192565 -0.07276741 0.23430985 -0.14068872 -0.26617444 -0.16411158 0.08095467 0.13810411
-0.13228771 0.005970371 -0.06574044 0.043068632 -0.103370115 0.08060723 -0.23569132 0.09048876
-0.10860797 -0.26083207 0.12920994 -0.056386646 0.07566263 -0.06886195 -0.16015404 0.13302547
0.21919553 -0.04954998 -0.06248472 -0.028834464 0.07429069 0.16713971 -0.17915642 -0.019890146
0.24390781 -0.0332987 0.093928814 -0.065220326 -0.13802934 -0.057352744 0.09445904 0.100319855
-0.042543717 0.14318494 0.105667755 0.07082542 -0.08496526 0.11706867 0.026398065 -0.32198703
0.0945813 -0.18625967 -0.1896511 0.09608189 -0.016676111 -0.10651833 0.192777 0.01111086
-0.16525884 0.13727255 0.059902404 -0.04726732 -0.036072765 -0.14830804 0.010339585 0.0826717
-0.05802767 -0.027086662 0.121072486 -0.13632159 0.107417144 -0.35435876 -0.25318196 -0.10041031
-0.11415865 -0.05586415 0.058265705 0.05157676 0.14989112 -0.03961891 -0.054231074 0.111157455
-0.12560941 -0.10644253 0.052450266 -0.12740287 0.11005215 0.12703043 0.057773672 -0.10655863
-0.096962884 -0.038792223 -0.03333699 0.068506666 -0.14448017 -0.051241774 -0.06354059 -0.0136713665
0.030361181 -0.064774595 0.089475654 -0.043788433 -0.07558185 -0.06858505 0.15895726 -0.028376615
-0.05364154 0.34197715 -0.21011934 -0.35114807 0.07370102 -0.12106604 0.08307812 -0.02346159
-0.2794989 0.04888054 0.050869647 0.08722886 0.09891846 -0.009887414 -0.32290533 0.1804858
-0.047487643 -0.054578323 -0.11265534 -0.015297875 -0.042776916 -0.23392528 -0.014093188 0.3151853
00000000: b294 2c3e 6ca5 30bd 4224 3cbd 8234 41be
00000010: cc69 8a3d 67b7 ea3c ee79 093e c2f9 acbd
00000020: 9238 82bd 2c92 79bd babe 8e3d 3edb f3bd
00000030: d7aa ec3c 1045 4f3d dbd1 2ebd c67d c33d
00000040: 0b32 583d 1553 a7bd b2b5 723a 4a47 523d
00000050: 9cdd 4cbe 3267 a93d df1b 56be 5381 c73d
00000060: 18c4 d1bd c76b 08be 4e1e ab3c b4da 36bd
00000070: 8a16 ac3c aaac 79be f8aa 77be 6297 923c
00000080: e125 bc3d bad4 61bd 0046 d7bc 3e6e fc3d
00000090: e087 1d3c 529b 703d e1d5 85be 7c2b 2dbd
000000a0: f2ec 493a 9cba 2abd f5cc 4bbd 25d0 ab3d
000000b0: f383 163d 1fb4 b13c 1e07 063e 7c72 32bd
000000c0: bd13 babd 1e13 eabd 51df 10be acec 5ebd
000000d0: 61ac c3bd 84f5 4dbe e762 15be 52a5 543d
000000e0: 4757 61bd 5a41 c53d 6681 c03d 8cbc abbd
000000f0: e3fb 8cbc ce6a 90bd 082a d5bc d945 72be
00000100: 93c3 8f3c 7560 07be 76e1 c33d d955 a93d
00000110: 7549 78bd c0f2 ea3d dc94 efbc 4083 7f3c
00000120: 9035 253e 40ea 163c fe62 5a3d aa1f 083e
00000130: 6f39 9a3c 789c 80bd 5da1 573d 4ee4 1cbe
00000140: d3f0 a33d cdf6 aa3d e0f0 6b3b 690f f8bd
00000150: b227 d8bd 4002 21bb 3b86 9cbd 77d2 19be
00000160: 4773 013e 011e 303e cee9 75be 6668 643e
00000170: 4775 d13d 2393 5c3d 263c 4b3e ed0d ce3d
00000180: dd67 a93e 1c5e 1e3e 0612 83bc 6655 97bd
00000190: ab7b 11be d045 b43c 860a 203e d092 173d
000001a0: fc0e b53c 8d12 2fbe 889d 7e3e 6a63 143e
000001b0: b95e 1abe 92ad 263e 8df7 b5bb c7d5 583e
000001c0: 9820 c43d 5088 083e 11ec 7f3e 724c 1cbe
000001d0: 2e49 a1bd 26d0 99be 60d6 093e 2037 de3d
000001e0: fb80 87be 4c1e 1abd 93b3 953d 0088 d73b
000001f0: 5aa4 3c3e aeee 0abe 6c1f 34be 29e4 0e3e
00000200: c03c f43d 1407 95bd ecee 6f3e b410 10be
00000210: 0448 88be de0c 28be 90cb a53d 2a6b 0d3e
00000220: 6e76 07be 1aa3 c33b eca2 86bd bc68 303d
00000230: b6b3 d3bd 6715 a53d 1159 71be 2c52 b93d
00000240: db6d debd c88b 85be 9c4f 043e aff5 66bd
00000250: 02f5 9a3d 7e07 8dbd 6cff 23be d437 083e
00000260: cb74 603e ebf4 4abd faef 7fbd 4136 ecbc
00000270: b825 983d ac26 2b3e c874 37be a9f0 a2bc
00000280: f8c2 793e 3864 08bd c05d c03d 3c92 85bd
00000290: 9057 0dbe b6ea 6abd be73 c13d 7f74 cd3d
000002a0: 5242 2ebd 139f 123e 5668 d83d eb0c 913d
000002b0: 4402 aebd b3c1 ef3d c140 d83c 7cdb a4be
000002c0: d7b3 c13d dbba 3ebe e633 42be 95c6 c43d
000002d0: 579c 88bc 4826 dabd 5567 453e 530a 363c
000002e0: 9d39 29be 2d91 0c3e 395c 753d 619b 41bd
000002f0: 09c1 13bd 10de 17be 5d67 293c c84f a93d
00000300: 6cae 6dbd d9e4 ddbc daf4 f73d e397 0bbe
00000310: 85fd db3d 836e b5be 11a1 81be eca3 cdbd
00000320: 03cc e9bd cfd1 64bd 05a8 6e3d 2742 533d
00000330: 0f7d 193e 7047 22bd 6721 5ebd 85a6 e33d
00000340: c19f 00be 8bfe d9bd 17d6 563d e675 02be
00000350: 0663 e13d 4414 023e 16a4 6c3d 693b dabd
00000360: 7a94 c6bd 98e4 1ebd 5e8c 08bd 394d 8c3d
00000370: 9cf2 13be e5e2 51bd 9221 82bd defd 5fbc
00000380: 03b8 f83c 8ba8 84bd 033f b73d 805b 33bd
00000390: a8ca 9abd 5276 8cbd b1c5 223e 1376 e8bc
000003a0: 3bb7 5bbd a117 af3e 8629 57be aec9 b3be
000003b0: 8ff0 963d 79f1 f7bd dd24 aa3d 8532 c0bc
000003c0: 7b1a 8fbe f636 483d b15c 503d 0ba5 b23d
000003d0: c395 ca3d d2fe 21bc d953 a5be 45d1 383e
000003e0: 6782 42bd 858d 5fbd d8b7 e6bd f0a3 7abc
000003f0: d936 2fbd 1c8a 6fbe 1de7 66bc f85f a13e

fc2.bias f4 [64]
-0.029821152 -0.08749973 0.082822785 -0.017288074 -0.07010107 -0.12913108 -0.13731728 0.04088314
0.029529708 -0.010502837 0.23885052 0.008106132 -0.039535634 -0.10145843 0.086908795 0.031822436
0.016451668 -0.061911702 0.18313308 -0.0075219967 0.05300802 0.09865768 -0.022705387 0.04427387
-0.0221385 0.16027176 -0.13211845 0.08262646 0.14379083 -0.001378362 -0.015347763 0.09530021
-0.062437963 0.00039772413 0.12969819 0.13063124 0.10772598 0.016790703 0.13955717 0.09537881
-0.0100285625 0.019160522 -0.07597885 0.063213125 -0.12830159 -0.19473954 -0.12265525 0.095701605
-0.09466825 0.072481535 0.12304728 -0.043545213 0.1289858 0.07626387 0.049748473 0.12736523
0.051590364 -0.015169442 0.1077176 0.08380878 0.050840072 -0.052956782 0.03987125 -0.054848354
00000000: 7d4b f4bc 0f33 b3bd fe9e a93d b89f 8dbc
00000010: 2691 8fbd f03a 04be e79c 0cbe 1475 273d
00000020: 49e8 f13c 1714 2cbc 3b95 743e 95cf 043c
00000030: 1ef0 21bd 70c9 cfbd 3dfd b13d 3e58 023d
00000040: a6c5 863c 2097 7dbd 3d87 3b3e 157b f6bb
00000050: f01e 593d 0a0d ca3d a600 babc 8458 353d
00000060: cd5b b5bc 481e 243e 0f4a 07be 1038 a93d
00000070: e73d 133e 27aa b4ba 2f75 7bbc c22c c33d
00000080: f3be 7fbd a185 d039 9acf 043e 32c4 053e
00000090: 709f dc3d a88c 893c 13e8 0e3e f755 c33d
000000a0: d74e 24bc 87f6 9c3c cd9a 9bbd e275 813d
000000b0: 7e61 03be cd69 47be ad32 fbbd 34ff c33d
000000c0: 6de1 c1bd 3371 943d 3600 fc3d 775c 32bd
000000d0: db14 043e 3b30 9c3d 0ec5 4b3d 086c 023e
000000e0: 6b50 533d 4089 78bc 0c9b dc3d f0a3 ab3d
000000f0: ae3d 503d 36e9 58bd 0950 233d aba8 60bd

fc3.weight f4 [10, 64]
0.1352474 -0.17417803 -0.026152652 -0.05825534 -0.057685338 0.17545424 -0.14441198 0.113938026
0.15335926 0.16978647 -0.24027291 -0.0237756 0.05078093 0.051138945 0.06384641 0.059836123
-0.0065900255 -0.088699706 -0.11567519 0.16818948 0.056674782 -0.13084361 -0.05343247 -0.3050118
0.09613751 -0.020258531 -0.106006734 -0.14767298 -0.28156593 -0.043140285 -0.15230884 -0.009894967
0.035435483 -0.013122519 -0.08613346 0.07296171 0.04152556 0.1765763 0.04309983 -0.17356586
-0.32533345 0.07140909 0.09759701 -0.067145176 0.015470981 -0.038297538 -0.09667077 0.078910045
-0.26850238 -0.09892074 -0.26438403 0.11498294 -0.07992143 0.08078075 -0.03783727 0.2456851
-0.022951134 -0.009336417 0.017716244 -0.048455454 -0.099031985 0.10750961 0.118267484 -0.20851675
0.26179793 -0.19631925 0.19984122 0.20875432 0.10721726 -0.13247243 -0.19012213 -0.19232787
-0.13873985 -0.08028571 0.21239023 -0.38020808 -0.117233105 -0.06101337 0.0533604 -0.008275606
0.0074417684 0.19383818 0.032504883 -0.26458544 -0.025165249 0.07977993 -0.32604724 -0.36773798
-0.11817375 0.15734716 -0.5097282 -0.1595471 -0.24236551 -0.20408525 0.034764156 0.19236484
-0.18955804 0.08769768 0.107949495 -0.21589683 -0.30137247 0.06129364 0.06990852 -0.025914533
0.13570864 -0.06318298 -0.2859606 -0.07052485 -0.019868825 -0.40157127 0.07564726 0.0035491097
0.26937056 -0.5237731 -0.13530503 -0.17310824 -0.101060286 -0.041926257 -0.19774649 0.011213312
-0.5182848 0.0656455 0.18150255 -0.119225405 0.11059749 0.07455645 -0.34313726 0.116297424
-0.040447984 -0.31465223 -0.13625026 0.043808475 -0.0699092 0.01790258 -0.16276348 -0.032411844
0.16577788 -0.06502395 -0.043370042 0.057113487 -0.066007316 0.0717991 0.104920045 -0.40583104
0.07250546 0.057374056 0.06832514 -0.05723635 0.1567126 -0.17655715 -0.20319653 -0.0075533562
-0.023255775 0.018056272 0.19257692 -0.0026922747 0.08275251 0.026638899 0.12858912 0.049308904
0.07102367 -0.044755045 0.11659709 0.08318559 0.06913523 -0.32617754 -0.0033470236 -0.12904873
-0.3040292 0.12368855 0.06567763 0.16793047 -0.24096859 -0.02637257 -0.050196294 0.074622534
-0.1777322 0.112147585 -0.07632184 -0.07765471 -0.19346108 -0.029093107 -0.18820253 -0.12634872
0.10823901 -0.061843317 -0.13977289 -0.24973553 -0.07503293 0.14905873 0.09526034 -0.23830388
-0.14533083 -0.11574303 0.080583386 -0.19717602 -0.0893912 -0.07602156 -0.0817708 -0.28667623
-0.04080164 0.11351624 0.044276543 0.09030684 -0.09818402 -0.0057818885 0.12193944 -0.14522941
0.057052504 -0.07114075 0.043406434 0.0196134 0.11795267 0.070303634 -0.29728776 0.07559488
-0.11913824 -0.1992967 -0.0043687127 -0.051547714 0.09900664 0.16298239 -0.023044452 0.00075218984
-0.086083636 0.10753602 0.21839112 0.015782181 0.14234665 0.050766166 0.009891725 0.08982724
-0.024820985 -0.26624063 0.14193092 -0.035413507 -0.53992426 0.05535503 -0.033199422 0.004949297
-0.23733412 -0.492199 -0.11524073 -0.02274793 0.023089847 -0.013723067 -0.029703883 -0.09432214
-0.13449727 0.061902434 0.15163876 0.06679658 0.20267485 -0.066446856 -0.08502538 0.076925874
00000000: 4b7e 0a3e ba5b 32be 163e d6bc 279d 6ebd
00000010: 7647 6cbd 47aa 333e bce0 13be 5758 e93d
00000020: 360a 1d3e 81dc 2d3e 1a0a 76be 0cc5 c2bc
00000030: aaff 4f3d 1277 513d e8c1 823d b916 753d
00000040: 24f1 d7bb 31a8 b5bd 1de7 ecbd dd39 2c3e
00000050: d123 683d defb 05be 01dc 5abd 822a 9cbe
00000060: bee3 c43d 38f5 a5bc 0f1a d9bd 9637 17be
00000070: 6929 90be deb3 30bd d9f6 1bbe 801e 22bc
00000080: cc24 113d d5ff 56bc bd66 b0bd f36c 953d
00000090: b516 2a3d 6bd0 343e 7389 303d 40bb 31be
000000a0: 1b92 a6be ee3e 923d f1e0 c73d 6983 89bd
000000b0: ff79 7d3c e1dd 1cbd 53fb c5bd 979b a13d
000000c0: 2579 89be f596 cabd 585d 87be 2d7c eb3d
000000d0: d9ad a3bd 6170 a53d 41fb 1abd e094 7b3e
000000e0: 0404 bcbc c5f7 18bc a821 913c 3a79 46bd
000000f0: 48d1 cabd 002e dc3d 3936 f23d 6a85 55be
00000100: 610a 863e ea07 49be 2da3 4c3e b1c3 553e
00000110: b994 db3d daa6 07be 60af 42be 99f1 44be
00000120: d211 0ebe d66c a4bd d37c 593e a2aa c2be
00000130: e917 f0bd 28e9 79bd 6f90 5a3d 6896 07bc
00000140: 14da f33b 847d 463e d723 053d be77 87be
00000150: 5a27 cebc a963 a33d aaef a6be 2748 bcbe
00000160: 1405 f2bd 9d1f 213e 8c7d 02bf 5160 23be
00000170: aa2e 78be b9fb 50be dc64 0e3d 4afb 443e
00000180: 811b 42be d79a b33d a014 dd3d 0f14 5dbe
00000190: 7e4d 9abe 0a0f 7b3d 332c 8f3d b74a d4bc
000001a0: 35f7 0a3e 1466 81bd 6e69 92be 556f 90bd
000001b0: f2c3 a2bc c09a cdbe f3ec 9a3d 2e98 683b
000001c0: f0ea 893e fe15 06bf 678d 0abe 4943 31be
000001d0: b2f8 cebd deba 2bbd 0e7e 4abe 0ab8 373c
000001e0: 50ae 04bf 2671 863d cedb 393e 732c f4bd
000001f0: f080 e23d 0db1 983d b0af afbe 582d ee3d
00000200: c9ac 25bd 191a a1be 3085 0bbe 8470 333d
00000210: 8e2c 8fbd 6ea8 923c 78ab 26be 48c2 04bd
00000220: adc1 293e 472b 85bd c9a4 31bd d5ef 693d
00000230: d82e 87bd 680b 933d 52e0 d63d 16c9 cfbe
00000240: be7d 943d 0f01 6b3d 0dee 8b3d aa70 6abd
00000250: 4579 203e 66cb 34be c012 50be 2582 f7bb
00000260: e582 bebc bfea 933c e232 453e e070 30bb
00000270: 267a a93d d239 da3c deac 033e 22f8 493d
00000280: dc74 913d 1151 37bd 75ca ee3d 355d aa3d
00000290: c596 8d3d be00 a7be bd59 5bbb 5a25 04be
000002a0: b7a9 9bbe 6c50 fd3d fe81 863d f7f5 2b3e
000002b0: 78c0 76be 4a0b d8bc a19a 4dbd b3d3 983d
000002c0: 6eff 35be a2ad e53d a04e 9cbd 6f09 9fbd
000002d0: a91a 46be ab54 eebc 2ab8 40be 8f61 01be
000002e0: 6aac dd3d 6b4f 7dbd a020 0fbe acba 7fbe
000002f0: ddaa 99bd daa2 183e da17 c33d ef05 74be
00000300: 9bd1 14be af0a edbd e708 a53d 83e8 49be
00000310: bc12 b7bd 31b1 9bbd 7377 a7bd 3ac7 92be
00000320: 9f1f 27bd 347b e83d 525b 353d cbf2 b83d
00000330: b414 c9bd ff75 bdbb 63bb f93d 05b7 14be
00000340: e3af 693d 3eb2 91bd f2ca 313d 48ac a03c
00000350: 2b91 f13d 5afb 8f3d 1a36 98be 7dd1 9a3d
00000360: c0fe f3bd 6f14 4cbe 6b27 8fbb b223 53bd
00000370: fec3 ca3d dbe4 263e b8c7 bcbc 9b2e 453a
00000380: 9e4c b0bd d83b dc3d eca1 5f3e a249 813c
00000390: 52c3 113e 2ff0 4f3d e710 223c 58f7 b73d
000003a0: 6155 cbbc b150 88be 5756 113e c10d 11bd
000003b0: 7a38 0abf f5bb 623d 1efc 07bd b62d a23b
000003c0: b707 73be 8201 fcbe 5503 ecbd de59 babc
000003d0: eb26 bd3c b7d6 60bc 8f55 f3bc f72b c1bd
000003e0: a7b9 09be 688d 7d3d 3147 1b3e a5cc 883d
000003f0: ff89 4f3e 4a15 88bd c921 aebd 508b 9d3d

fc3.bias f4 [10]
-0.055806857 -0.119516805 0.06815362 0.0052089314 -0.0389531 0.015196658 0.0039944905 -0.03674554
0.20904204 -0.10566932
00000000: bb95 64bd 3ac5 f4bd 2094 8b3d afaf aa3b
00000010: 498d 1fbd 67fb 783c 37e4 823b 7e82 16bd
00000020: 1e0f 563e 2869 d8bd
